{
  "format": "graph-model",
  "generatedBy": "2.3.1",
  "convertedBy": "TensorFlow.js Converter v2.7.0",
  "userDefinedMetadata": {
    "signature": {
      "inputs": {
        "input_1:0": {
          "name": "input_1:0",
          "dtype": "DT_FLOAT",
          "tensorShape": {
            "dim": [
              {
                "size": "-1"
              },
              {
                "size": "224"
              },
              {
                "size": "224"
              },
              {
                "size": "3"
              }
            ]
          }
        }
      },
      "outputs": {
        "Identity:0": {
          "name": "Identity:0",
          "dtype": "DT_FLOAT",
          "tensorShape": {
            "dim": [
              {
                "size": "-1"
              },
              {
                "size": "224"
              },
              {
                "size": "224"
              },
              {
                "size": "2"
              }
            ]
          }
        }
      }
    }
  },
  "modelTopology": {
    "node": [
      {
        "name": "StatefulPartitionedCall/deeplabv3p/lambda_1/resize/size",
        "op": "Const",
        "attr": {
          "value": {
            "tensor": {
              "dtype": "DT_INT32",
              "tensorShape": {
                "dim": [
                  {
                    "size": "2"
                  }
                ]
              }
            }
          },
          "dtype": {
            "type": "DT_INT32"
          }
        }
      },
      {
        "name": "StatefulPartitionedCall/deeplabv3p/lambda/mul/y",
        "op": "Const",
        "attr": {
          "dtype": {
            "type": "DT_FLOAT"
          },
          "value": {
            "tensor": {
              "dtype": "DT_FLOAT",
              "tensorShape": {}
            }
          }
        }
      },
      {
        "name": "StatefulPartitionedCall/deeplabv3p/lambda/sub/y",
        "op": "Const",
        "attr": {
          "value": {
            "tensor": {
              "dtype": "DT_FLOAT",
              "tensorShape": {}
            }
          },
          "dtype": {
            "type": "DT_FLOAT"
          }
        }
      },
      {
        "name": "StatefulPartitionedCall/deeplabv3p/expanded_conv_7_depthwise/depthwise/SpaceToBatchND/block_shape",
        "op": "Const",
        "attr": {
          "dtype": {
            "type": "DT_INT32"
          },
          "value": {
            "tensor": {
              "dtype": "DT_INT32",
              "tensorShape": {
                "dim": [
                  {
                    "size": "2"
                  }
                ]
              }
            }
          }
        }
      },
      {
        "name": "StatefulPartitionedCall/deeplabv3p/expanded_conv_7_depthwise/depthwise/SpaceToBatchND/paddings",
        "op": "Const",
        "attr": {
          "value": {
            "tensor": {
              "dtype": "DT_INT32",
              "tensorShape": {
                "dim": [
                  {
                    "size": "2"
                  },
                  {
                    "size": "2"
                  }
                ]
              }
            }
          },
          "dtype": {
            "type": "DT_INT32"
          }
        }
      },
      {
        "name": "unknown_109",
        "op": "Const",
        "attr": {
          "dtype": {
            "type": "DT_FLOAT"
          },
          "value": {
            "tensor": {
              "dtype": "DT_FLOAT",
              "tensorShape": {
                "dim": [
                  {
                    "size": "3"
                  },
                  {
                    "size": "3"
                  },
                  {
                    "size": "384"
                  },
                  {
                    "size": "1"
                  }
                ]
              }
            }
          }
        }
      },
      {
        "name": "StatefulPartitionedCall/deeplabv3p/expanded_conv_7_depthwise/depthwise/BatchToSpaceND/block_shape",
        "op": "Const",
        "attr": {
          "value": {
            "tensor": {
              "dtype": "DT_INT32",
              "tensorShape": {
                "dim": [
                  {
                    "size": "2"
                  }
                ]
              }
            }
          },
          "dtype": {
            "type": "DT_INT32"
          }
        }
      },
      {
        "name": "StatefulPartitionedCall/deeplabv3p/expanded_conv_7_depthwise/depthwise/BatchToSpaceND/crops",
        "op": "Const",
        "attr": {
          "value": {
            "tensor": {
              "dtype": "DT_INT32",
              "tensorShape": {
                "dim": [
                  {
                    "size": "2"
                  },
                  {
                    "size": "2"
                  }
                ]
              }
            }
          },
          "dtype": {
            "type": "DT_INT32"
          }
        }
      },
      {
        "name": "StatefulPartitionedCall/deeplabv3p/expanded_conv_8_depthwise/depthwise/SpaceToBatchND/block_shape",
        "op": "Const",
        "attr": {
          "value": {
            "tensor": {
              "dtype": "DT_INT32",
              "tensorShape": {
                "dim": [
                  {
                    "size": "2"
                  }
                ]
              }
            }
          },
          "dtype": {
            "type": "DT_INT32"
          }
        }
      },
      {
        "name": "StatefulPartitionedCall/deeplabv3p/expanded_conv_8_depthwise/depthwise/SpaceToBatchND/paddings",
        "op": "Const",
        "attr": {
          "dtype": {
            "type": "DT_INT32"
          },
          "value": {
            "tensor": {
              "dtype": "DT_INT32",
              "tensorShape": {
                "dim": [
                  {
                    "size": "2"
                  },
                  {
                    "size": "2"
                  }
                ]
              }
            }
          }
        }
      },
      {
        "name": "unknown_124",
        "op": "Const",
        "attr": {
          "value": {
            "tensor": {
              "dtype": "DT_FLOAT",
              "tensorShape": {
                "dim": [
                  {
                    "size": "3"
                  },
                  {
                    "size": "3"
                  },
                  {
                    "size": "384"
                  },
                  {
                    "size": "1"
                  }
                ]
              }
            }
          },
          "dtype": {
            "type": "DT_FLOAT"
          }
        }
      },
      {
        "name": "StatefulPartitionedCall/deeplabv3p/expanded_conv_8_depthwise/depthwise/BatchToSpaceND/block_shape",
        "op": "Const",
        "attr": {
          "value": {
            "tensor": {
              "dtype": "DT_INT32",
              "tensorShape": {
                "dim": [
                  {
                    "size": "2"
                  }
                ]
              }
            }
          },
          "dtype": {
            "type": "DT_INT32"
          }
        }
      },
      {
        "name": "StatefulPartitionedCall/deeplabv3p/expanded_conv_8_depthwise/depthwise/BatchToSpaceND/crops",
        "op": "Const",
        "attr": {
          "value": {
            "tensor": {
              "dtype": "DT_INT32",
              "tensorShape": {
                "dim": [
                  {
                    "size": "2"
                  },
                  {
                    "size": "2"
                  }
                ]
              }
            }
          },
          "dtype": {
            "type": "DT_INT32"
          }
        }
      },
      {
        "name": "StatefulPartitionedCall/deeplabv3p/expanded_conv_9_depthwise/depthwise/SpaceToBatchND/block_shape",
        "op": "Const",
        "attr": {
          "value": {
            "tensor": {
              "dtype": "DT_INT32",
              "tensorShape": {
                "dim": [
                  {
                    "size": "2"
                  }
                ]
              }
            }
          },
          "dtype": {
            "type": "DT_INT32"
          }
        }
      },
      {
        "name": "StatefulPartitionedCall/deeplabv3p/expanded_conv_9_depthwise/depthwise/SpaceToBatchND/paddings",
        "op": "Const",
        "attr": {
          "value": {
            "tensor": {
              "dtype": "DT_INT32",
              "tensorShape": {
                "dim": [
                  {
                    "size": "2"
                  },
                  {
                    "size": "2"
                  }
                ]
              }
            }
          },
          "dtype": {
            "type": "DT_INT32"
          }
        }
      },
      {
        "name": "unknown_139",
        "op": "Const",
        "attr": {
          "value": {
            "tensor": {
              "dtype": "DT_FLOAT",
              "tensorShape": {
                "dim": [
                  {
                    "size": "3"
                  },
                  {
                    "size": "3"
                  },
                  {
                    "size": "384"
                  },
                  {
                    "size": "1"
                  }
                ]
              }
            }
          },
          "dtype": {
            "type": "DT_FLOAT"
          }
        }
      },
      {
        "name": "StatefulPartitionedCall/deeplabv3p/expanded_conv_9_depthwise/depthwise/BatchToSpaceND/block_shape",
        "op": "Const",
        "attr": {
          "value": {
            "tensor": {
              "dtype": "DT_INT32",
              "tensorShape": {
                "dim": [
                  {
                    "size": "2"
                  }
                ]
              }
            }
          },
          "dtype": {
            "type": "DT_INT32"
          }
        }
      },
      {
        "name": "StatefulPartitionedCall/deeplabv3p/expanded_conv_9_depthwise/depthwise/BatchToSpaceND/crops",
        "op": "Const",
        "attr": {
          "value": {
            "tensor": {
              "dtype": "DT_INT32",
              "tensorShape": {
                "dim": [
                  {
                    "size": "2"
                  },
                  {
                    "size": "2"
                  }
                ]
              }
            }
          },
          "dtype": {
            "type": "DT_INT32"
          }
        }
      },
      {
        "name": "StatefulPartitionedCall/deeplabv3p/expanded_conv_10_depthwise/depthwise/SpaceToBatchND/block_shape",
        "op": "Const",
        "attr": {
          "value": {
            "tensor": {
              "dtype": "DT_INT32",
              "tensorShape": {
                "dim": [
                  {
                    "size": "2"
                  }
                ]
              }
            }
          },
          "dtype": {
            "type": "DT_INT32"
          }
        }
      },
      {
        "name": "StatefulPartitionedCall/deeplabv3p/expanded_conv_10_depthwise/depthwise/SpaceToBatchND/paddings",
        "op": "Const",
        "attr": {
          "dtype": {
            "type": "DT_INT32"
          },
          "value": {
            "tensor": {
              "dtype": "DT_INT32",
              "tensorShape": {
                "dim": [
                  {
                    "size": "2"
                  },
                  {
                    "size": "2"
                  }
                ]
              }
            }
          }
        }
      },
      {
        "name": "unknown_154",
        "op": "Const",
        "attr": {
          "value": {
            "tensor": {
              "dtype": "DT_FLOAT",
              "tensorShape": {
                "dim": [
                  {
                    "size": "3"
                  },
                  {
                    "size": "3"
                  },
                  {
                    "size": "384"
                  },
                  {
                    "size": "1"
                  }
                ]
              }
            }
          },
          "dtype": {
            "type": "DT_FLOAT"
          }
        }
      },
      {
        "name": "StatefulPartitionedCall/deeplabv3p/expanded_conv_10_depthwise/depthwise/BatchToSpaceND/block_shape",
        "op": "Const",
        "attr": {
          "dtype": {
            "type": "DT_INT32"
          },
          "value": {
            "tensor": {
              "dtype": "DT_INT32",
              "tensorShape": {
                "dim": [
                  {
                    "size": "2"
                  }
                ]
              }
            }
          }
        }
      },
      {
        "name": "StatefulPartitionedCall/deeplabv3p/expanded_conv_10_depthwise/depthwise/BatchToSpaceND/crops",
        "op": "Const",
        "attr": {
          "value": {
            "tensor": {
              "dtype": "DT_INT32",
              "tensorShape": {
                "dim": [
                  {
                    "size": "2"
                  },
                  {
                    "size": "2"
                  }
                ]
              }
            }
          },
          "dtype": {
            "type": "DT_INT32"
          }
        }
      },
      {
        "name": "StatefulPartitionedCall/deeplabv3p/expanded_conv_11_depthwise/depthwise/SpaceToBatchND/block_shape",
        "op": "Const",
        "attr": {
          "value": {
            "tensor": {
              "dtype": "DT_INT32",
              "tensorShape": {
                "dim": [
                  {
                    "size": "2"
                  }
                ]
              }
            }
          },
          "dtype": {
            "type": "DT_INT32"
          }
        }
      },
      {
        "name": "StatefulPartitionedCall/deeplabv3p/expanded_conv_11_depthwise/depthwise/SpaceToBatchND/paddings",
        "op": "Const",
        "attr": {
          "value": {
            "tensor": {
              "dtype": "DT_INT32",
              "tensorShape": {
                "dim": [
                  {
                    "size": "2"
                  },
                  {
                    "size": "2"
                  }
                ]
              }
            }
          },
          "dtype": {
            "type": "DT_INT32"
          }
        }
      },
      {
        "name": "unknown_169",
        "op": "Const",
        "attr": {
          "value": {
            "tensor": {
              "dtype": "DT_FLOAT",
              "tensorShape": {
                "dim": [
                  {
                    "size": "3"
                  },
                  {
                    "size": "3"
                  },
                  {
                    "size": "576"
                  },
                  {
                    "size": "1"
                  }
                ]
              }
            }
          },
          "dtype": {
            "type": "DT_FLOAT"
          }
        }
      },
      {
        "name": "StatefulPartitionedCall/deeplabv3p/expanded_conv_11_depthwise/depthwise/BatchToSpaceND/block_shape",
        "op": "Const",
        "attr": {
          "value": {
            "tensor": {
              "dtype": "DT_INT32",
              "tensorShape": {
                "dim": [
                  {
                    "size": "2"
                  }
                ]
              }
            }
          },
          "dtype": {
            "type": "DT_INT32"
          }
        }
      },
      {
        "name": "StatefulPartitionedCall/deeplabv3p/expanded_conv_11_depthwise/depthwise/BatchToSpaceND/crops",
        "op": "Const",
        "attr": {
          "value": {
            "tensor": {
              "dtype": "DT_INT32",
              "tensorShape": {
                "dim": [
                  {
                    "size": "2"
                  },
                  {
                    "size": "2"
                  }
                ]
              }
            }
          },
          "dtype": {
            "type": "DT_INT32"
          }
        }
      },
      {
        "name": "StatefulPartitionedCall/deeplabv3p/expanded_conv_12_depthwise/depthwise/SpaceToBatchND/block_shape",
        "op": "Const",
        "attr": {
          "dtype": {
            "type": "DT_INT32"
          },
          "value": {
            "tensor": {
              "dtype": "DT_INT32",
              "tensorShape": {
                "dim": [
                  {
                    "size": "2"
                  }
                ]
              }
            }
          }
        }
      },
      {
        "name": "StatefulPartitionedCall/deeplabv3p/expanded_conv_12_depthwise/depthwise/SpaceToBatchND/paddings",
        "op": "Const",
        "attr": {
          "value": {
            "tensor": {
              "dtype": "DT_INT32",
              "tensorShape": {
                "dim": [
                  {
                    "size": "2"
                  },
                  {
                    "size": "2"
                  }
                ]
              }
            }
          },
          "dtype": {
            "type": "DT_INT32"
          }
        }
      },
      {
        "name": "unknown_184",
        "op": "Const",
        "attr": {
          "value": {
            "tensor": {
              "dtype": "DT_FLOAT",
              "tensorShape": {
                "dim": [
                  {
                    "size": "3"
                  },
                  {
                    "size": "3"
                  },
                  {
                    "size": "576"
                  },
                  {
                    "size": "1"
                  }
                ]
              }
            }
          },
          "dtype": {
            "type": "DT_FLOAT"
          }
        }
      },
      {
        "name": "StatefulPartitionedCall/deeplabv3p/expanded_conv_12_depthwise/depthwise/BatchToSpaceND/block_shape",
        "op": "Const",
        "attr": {
          "value": {
            "tensor": {
              "dtype": "DT_INT32",
              "tensorShape": {
                "dim": [
                  {
                    "size": "2"
                  }
                ]
              }
            }
          },
          "dtype": {
            "type": "DT_INT32"
          }
        }
      },
      {
        "name": "StatefulPartitionedCall/deeplabv3p/expanded_conv_12_depthwise/depthwise/BatchToSpaceND/crops",
        "op": "Const",
        "attr": {
          "value": {
            "tensor": {
              "dtype": "DT_INT32",
              "tensorShape": {
                "dim": [
                  {
                    "size": "2"
                  },
                  {
                    "size": "2"
                  }
                ]
              }
            }
          },
          "dtype": {
            "type": "DT_INT32"
          }
        }
      },
      {
        "name": "StatefulPartitionedCall/deeplabv3p/expanded_conv_13_depthwise/depthwise/SpaceToBatchND/block_shape",
        "op": "Const",
        "attr": {
          "value": {
            "tensor": {
              "dtype": "DT_INT32",
              "tensorShape": {
                "dim": [
                  {
                    "size": "2"
                  }
                ]
              }
            }
          },
          "dtype": {
            "type": "DT_INT32"
          }
        }
      },
      {
        "name": "StatefulPartitionedCall/deeplabv3p/expanded_conv_13_depthwise/depthwise/SpaceToBatchND/paddings",
        "op": "Const",
        "attr": {
          "value": {
            "tensor": {
              "dtype": "DT_INT32",
              "tensorShape": {
                "dim": [
                  {
                    "size": "2"
                  },
                  {
                    "size": "2"
                  }
                ]
              }
            }
          },
          "dtype": {
            "type": "DT_INT32"
          }
        }
      },
      {
        "name": "unknown_199",
        "op": "Const",
        "attr": {
          "dtype": {
            "type": "DT_FLOAT"
          },
          "value": {
            "tensor": {
              "dtype": "DT_FLOAT",
              "tensorShape": {
                "dim": [
                  {
                    "size": "3"
                  },
                  {
                    "size": "3"
                  },
                  {
                    "size": "576"
                  },
                  {
                    "size": "1"
                  }
                ]
              }
            }
          }
        }
      },
      {
        "name": "StatefulPartitionedCall/deeplabv3p/expanded_conv_13_depthwise/depthwise/BatchToSpaceND/block_shape",
        "op": "Const",
        "attr": {
          "dtype": {
            "type": "DT_INT32"
          },
          "value": {
            "tensor": {
              "dtype": "DT_INT32",
              "tensorShape": {
                "dim": [
                  {
                    "size": "2"
                  }
                ]
              }
            }
          }
        }
      },
      {
        "name": "StatefulPartitionedCall/deeplabv3p/expanded_conv_13_depthwise/depthwise/BatchToSpaceND/crops",
        "op": "Const",
        "attr": {
          "value": {
            "tensor": {
              "dtype": "DT_INT32",
              "tensorShape": {
                "dim": [
                  {
                    "size": "2"
                  },
                  {
                    "size": "2"
                  }
                ]
              }
            }
          },
          "dtype": {
            "type": "DT_INT32"
          }
        }
      },
      {
        "name": "StatefulPartitionedCall/deeplabv3p/expanded_conv_14_depthwise/depthwise/SpaceToBatchND/block_shape",
        "op": "Const",
        "attr": {
          "value": {
            "tensor": {
              "dtype": "DT_INT32",
              "tensorShape": {
                "dim": [
                  {
                    "size": "2"
                  }
                ]
              }
            }
          },
          "dtype": {
            "type": "DT_INT32"
          }
        }
      },
      {
        "name": "StatefulPartitionedCall/deeplabv3p/expanded_conv_14_depthwise/depthwise/SpaceToBatchND/paddings",
        "op": "Const",
        "attr": {
          "value": {
            "tensor": {
              "dtype": "DT_INT32",
              "tensorShape": {
                "dim": [
                  {
                    "size": "2"
                  },
                  {
                    "size": "2"
                  }
                ]
              }
            }
          },
          "dtype": {
            "type": "DT_INT32"
          }
        }
      },
      {
        "name": "unknown_214",
        "op": "Const",
        "attr": {
          "value": {
            "tensor": {
              "dtype": "DT_FLOAT",
              "tensorShape": {
                "dim": [
                  {
                    "size": "3"
                  },
                  {
                    "size": "3"
                  },
                  {
                    "size": "960"
                  },
                  {
                    "size": "1"
                  }
                ]
              }
            }
          },
          "dtype": {
            "type": "DT_FLOAT"
          }
        }
      },
      {
        "name": "StatefulPartitionedCall/deeplabv3p/expanded_conv_14_depthwise/depthwise/BatchToSpaceND/block_shape",
        "op": "Const",
        "attr": {
          "value": {
            "tensor": {
              "dtype": "DT_INT32",
              "tensorShape": {
                "dim": [
                  {
                    "size": "2"
                  }
                ]
              }
            }
          },
          "dtype": {
            "type": "DT_INT32"
          }
        }
      },
      {
        "name": "StatefulPartitionedCall/deeplabv3p/expanded_conv_14_depthwise/depthwise/BatchToSpaceND/crops",
        "op": "Const",
        "attr": {
          "value": {
            "tensor": {
              "dtype": "DT_INT32",
              "tensorShape": {
                "dim": [
                  {
                    "size": "2"
                  },
                  {
                    "size": "2"
                  }
                ]
              }
            }
          },
          "dtype": {
            "type": "DT_INT32"
          }
        }
      },
      {
        "name": "StatefulPartitionedCall/deeplabv3p/expanded_conv_15_depthwise/depthwise/SpaceToBatchND/block_shape",
        "op": "Const",
        "attr": {
          "value": {
            "tensor": {
              "dtype": "DT_INT32",
              "tensorShape": {
                "dim": [
                  {
                    "size": "2"
                  }
                ]
              }
            }
          },
          "dtype": {
            "type": "DT_INT32"
          }
        }
      },
      {
        "name": "StatefulPartitionedCall/deeplabv3p/expanded_conv_15_depthwise/depthwise/SpaceToBatchND/paddings",
        "op": "Const",
        "attr": {
          "dtype": {
            "type": "DT_INT32"
          },
          "value": {
            "tensor": {
              "dtype": "DT_INT32",
              "tensorShape": {
                "dim": [
                  {
                    "size": "2"
                  },
                  {
                    "size": "2"
                  }
                ]
              }
            }
          }
        }
      },
      {
        "name": "unknown_229",
        "op": "Const",
        "attr": {
          "dtype": {
            "type": "DT_FLOAT"
          },
          "value": {
            "tensor": {
              "dtype": "DT_FLOAT",
              "tensorShape": {
                "dim": [
                  {
                    "size": "3"
                  },
                  {
                    "size": "3"
                  },
                  {
                    "size": "960"
                  },
                  {
                    "size": "1"
                  }
                ]
              }
            }
          }
        }
      },
      {
        "name": "StatefulPartitionedCall/deeplabv3p/expanded_conv_15_depthwise/depthwise/BatchToSpaceND/block_shape",
        "op": "Const",
        "attr": {
          "value": {
            "tensor": {
              "dtype": "DT_INT32",
              "tensorShape": {
                "dim": [
                  {
                    "size": "2"
                  }
                ]
              }
            }
          },
          "dtype": {
            "type": "DT_INT32"
          }
        }
      },
      {
        "name": "StatefulPartitionedCall/deeplabv3p/expanded_conv_15_depthwise/depthwise/BatchToSpaceND/crops",
        "op": "Const",
        "attr": {
          "value": {
            "tensor": {
              "dtype": "DT_INT32",
              "tensorShape": {
                "dim": [
                  {
                    "size": "2"
                  },
                  {
                    "size": "2"
                  }
                ]
              }
            }
          },
          "dtype": {
            "type": "DT_INT32"
          }
        }
      },
      {
        "name": "StatefulPartitionedCall/deeplabv3p/expanded_conv_16_depthwise/depthwise/SpaceToBatchND/block_shape",
        "op": "Const",
        "attr": {
          "dtype": {
            "type": "DT_INT32"
          },
          "value": {
            "tensor": {
              "dtype": "DT_INT32",
              "tensorShape": {
                "dim": [
                  {
                    "size": "2"
                  }
                ]
              }
            }
          }
        }
      },
      {
        "name": "StatefulPartitionedCall/deeplabv3p/expanded_conv_16_depthwise/depthwise/SpaceToBatchND/paddings",
        "op": "Const",
        "attr": {
          "value": {
            "tensor": {
              "dtype": "DT_INT32",
              "tensorShape": {
                "dim": [
                  {
                    "size": "2"
                  },
                  {
                    "size": "2"
                  }
                ]
              }
            }
          },
          "dtype": {
            "type": "DT_INT32"
          }
        }
      },
      {
        "name": "unknown_244",
        "op": "Const",
        "attr": {
          "value": {
            "tensor": {
              "dtype": "DT_FLOAT",
              "tensorShape": {
                "dim": [
                  {
                    "size": "3"
                  },
                  {
                    "size": "3"
                  },
                  {
                    "size": "960"
                  },
                  {
                    "size": "1"
                  }
                ]
              }
            }
          },
          "dtype": {
            "type": "DT_FLOAT"
          }
        }
      },
      {
        "name": "StatefulPartitionedCall/deeplabv3p/expanded_conv_16_depthwise/depthwise/BatchToSpaceND/block_shape",
        "op": "Const",
        "attr": {
          "value": {
            "tensor": {
              "dtype": "DT_INT32",
              "tensorShape": {
                "dim": [
                  {
                    "size": "2"
                  }
                ]
              }
            }
          },
          "dtype": {
            "type": "DT_INT32"
          }
        }
      },
      {
        "name": "StatefulPartitionedCall/deeplabv3p/expanded_conv_16_depthwise/depthwise/BatchToSpaceND/crops",
        "op": "Const",
        "attr": {
          "dtype": {
            "type": "DT_INT32"
          },
          "value": {
            "tensor": {
              "dtype": "DT_INT32",
              "tensorShape": {
                "dim": [
                  {
                    "size": "2"
                  },
                  {
                    "size": "2"
                  }
                ]
              }
            }
          }
        }
      },
      {
        "name": "StatefulPartitionedCall/deeplabv3p/concatenate/concat/axis",
        "op": "Const",
        "attr": {
          "value": {
            "tensor": {
              "dtype": "DT_INT32",
              "tensorShape": {}
            }
          },
          "dtype": {
            "type": "DT_INT32"
          }
        }
      },
      {
        "name": "StatefulPartitionedCall/deeplabv3p/lambda_3/resize/size",
        "op": "Const",
        "attr": {
          "value": {
            "tensor": {
              "dtype": "DT_INT32",
              "tensorShape": {
                "dim": [
                  {
                    "size": "2"
                  }
                ]
              }
            }
          },
          "dtype": {
            "type": "DT_INT32"
          }
        }
      },
      {
        "name": "input_1",
        "op": "Placeholder",
        "attr": {
          "dtype": {
            "type": "DT_FLOAT"
          },
          "shape": {
            "shape": {
              "dim": [
                {
                  "size": "-1"
                },
                {
                  "size": "224"
                },
                {
                  "size": "224"
                },
                {
                  "size": "3"
                }
              ]
            }
          }
        }
      },
      {
        "name": "StatefulPartitionedCall/deeplabv3p/Conv/Conv2D_weights",
        "op": "Const",
        "attr": {
          "value": {
            "tensor": {
              "dtype": "DT_FLOAT",
              "tensorShape": {
                "dim": [
                  {
                    "size": "3"
                  },
                  {
                    "size": "3"
                  },
                  {
                    "size": "3"
                  },
                  {
                    "size": "32"
                  }
                ]
              }
            }
          },
          "dtype": {
            "type": "DT_FLOAT"
          }
        }
      },
      {
        "name": "StatefulPartitionedCall/deeplabv3p/Conv/Conv2D_bn_offset",
        "op": "Const",
        "attr": {
          "dtype": {
            "type": "DT_FLOAT"
          },
          "value": {
            "tensor": {
              "dtype": "DT_FLOAT",
              "tensorShape": {
                "dim": [
                  {
                    "size": "32"
                  }
                ]
              }
            }
          }
        }
      },
      {
        "name": "StatefulPartitionedCall/deeplabv3p/expanded_conv_15_depthwise_BN/FusedBatchNormV3/Offset",
        "op": "Const",
        "attr": {
          "value": {
            "tensor": {
              "dtype": "DT_FLOAT",
              "tensorShape": {
                "dim": [
                  {
                    "size": "960"
                  }
                ]
              }
            }
          },
          "dtype": {
            "type": "DT_FLOAT"
          }
        }
      },
      {
        "name": "StatefulPartitionedCall/deeplabv3p/expanded_conv_depthwise/depthwise_weights",
        "op": "Const",
        "attr": {
          "value": {
            "tensor": {
              "dtype": "DT_FLOAT",
              "tensorShape": {
                "dim": [
                  {
                    "size": "3"
                  },
                  {
                    "size": "3"
                  },
                  {
                    "size": "32"
                  },
                  {
                    "size": "1"
                  }
                ]
              }
            }
          },
          "dtype": {
            "type": "DT_FLOAT"
          }
        }
      },
      {
        "name": "StatefulPartitionedCall/deeplabv3p/expanded_conv_depthwise/depthwise_bn_offset",
        "op": "Const",
        "attr": {
          "value": {
            "tensor": {
              "dtype": "DT_FLOAT",
              "tensorShape": {
                "dim": [
                  {
                    "size": "32"
                  }
                ]
              }
            }
          },
          "dtype": {
            "type": "DT_FLOAT"
          }
        }
      },
      {
        "name": "StatefulPartitionedCall/deeplabv3p/expanded_conv_project/Conv2D_weights",
        "op": "Const",
        "attr": {
          "value": {
            "tensor": {
              "dtype": "DT_FLOAT",
              "tensorShape": {
                "dim": [
                  {
                    "size": "1"
                  },
                  {
                    "size": "1"
                  },
                  {
                    "size": "32"
                  },
                  {
                    "size": "16"
                  }
                ]
              }
            }
          },
          "dtype": {
            "type": "DT_FLOAT"
          }
        }
      },
      {
        "name": "StatefulPartitionedCall/deeplabv3p/expanded_conv_project/Conv2D_bn_offset",
        "op": "Const",
        "attr": {
          "value": {
            "tensor": {
              "dtype": "DT_FLOAT",
              "tensorShape": {
                "dim": [
                  {
                    "size": "16"
                  }
                ]
              }
            }
          },
          "dtype": {
            "type": "DT_FLOAT"
          }
        }
      },
      {
        "name": "StatefulPartitionedCall/deeplabv3p/expanded_conv_1_expand/Conv2D_weights",
        "op": "Const",
        "attr": {
          "dtype": {
            "type": "DT_FLOAT"
          },
          "value": {
            "tensor": {
              "dtype": "DT_FLOAT",
              "tensorShape": {
                "dim": [
                  {
                    "size": "1"
                  },
                  {
                    "size": "1"
                  },
                  {
                    "size": "16"
                  },
                  {
                    "size": "96"
                  }
                ]
              }
            }
          }
        }
      },
      {
        "name": "StatefulPartitionedCall/deeplabv3p/expanded_conv_1_expand/Conv2D_bn_offset",
        "op": "Const",
        "attr": {
          "value": {
            "tensor": {
              "dtype": "DT_FLOAT",
              "tensorShape": {
                "dim": [
                  {
                    "size": "96"
                  }
                ]
              }
            }
          },
          "dtype": {
            "type": "DT_FLOAT"
          }
        }
      },
      {
        "name": "StatefulPartitionedCall/deeplabv3p/expanded_conv_1_depthwise/depthwise_weights",
        "op": "Const",
        "attr": {
          "value": {
            "tensor": {
              "dtype": "DT_FLOAT",
              "tensorShape": {
                "dim": [
                  {
                    "size": "3"
                  },
                  {
                    "size": "3"
                  },
                  {
                    "size": "96"
                  },
                  {
                    "size": "1"
                  }
                ]
              }
            }
          },
          "dtype": {
            "type": "DT_FLOAT"
          }
        }
      },
      {
        "name": "StatefulPartitionedCall/deeplabv3p/expanded_conv_1_depthwise/depthwise_bn_offset",
        "op": "Const",
        "attr": {
          "value": {
            "tensor": {
              "dtype": "DT_FLOAT",
              "tensorShape": {
                "dim": [
                  {
                    "size": "96"
                  }
                ]
              }
            }
          },
          "dtype": {
            "type": "DT_FLOAT"
          }
        }
      },
      {
        "name": "StatefulPartitionedCall/deeplabv3p/expanded_conv_1_project/Conv2D_weights",
        "op": "Const",
        "attr": {
          "value": {
            "tensor": {
              "dtype": "DT_FLOAT",
              "tensorShape": {
                "dim": [
                  {
                    "size": "1"
                  },
                  {
                    "size": "1"
                  },
                  {
                    "size": "96"
                  },
                  {
                    "size": "24"
                  }
                ]
              }
            }
          },
          "dtype": {
            "type": "DT_FLOAT"
          }
        }
      },
      {
        "name": "StatefulPartitionedCall/deeplabv3p/expanded_conv_14_depthwise_BN/FusedBatchNormV3/Scaled",
        "op": "Const",
        "attr": {
          "value": {
            "tensor": {
              "dtype": "DT_FLOAT",
              "tensorShape": {
                "dim": [
                  {
                    "size": "960"
                  }
                ]
              }
            }
          },
          "dtype": {
            "type": "DT_FLOAT"
          }
        }
      },
      {
        "name": "StatefulPartitionedCall/deeplabv3p/expanded_conv_1_project/Conv2D_bn_offset",
        "op": "Const",
        "attr": {
          "value": {
            "tensor": {
              "dtype": "DT_FLOAT",
              "tensorShape": {
                "dim": [
                  {
                    "size": "24"
                  }
                ]
              }
            }
          },
          "dtype": {
            "type": "DT_FLOAT"
          }
        }
      },
      {
        "name": "StatefulPartitionedCall/deeplabv3p/expanded_conv_2_expand/Conv2D_weights",
        "op": "Const",
        "attr": {
          "value": {
            "tensor": {
              "dtype": "DT_FLOAT",
              "tensorShape": {
                "dim": [
                  {
                    "size": "1"
                  },
                  {
                    "size": "1"
                  },
                  {
                    "size": "24"
                  },
                  {
                    "size": "144"
                  }
                ]
              }
            }
          },
          "dtype": {
            "type": "DT_FLOAT"
          }
        }
      },
      {
        "name": "StatefulPartitionedCall/deeplabv3p/expanded_conv_2_expand/Conv2D_bn_offset",
        "op": "Const",
        "attr": {
          "value": {
            "tensor": {
              "dtype": "DT_FLOAT",
              "tensorShape": {
                "dim": [
                  {
                    "size": "144"
                  }
                ]
              }
            }
          },
          "dtype": {
            "type": "DT_FLOAT"
          }
        }
      },
      {
        "name": "StatefulPartitionedCall/deeplabv3p/expanded_conv_2_depthwise/depthwise_weights",
        "op": "Const",
        "attr": {
          "value": {
            "tensor": {
              "dtype": "DT_FLOAT",
              "tensorShape": {
                "dim": [
                  {
                    "size": "3"
                  },
                  {
                    "size": "3"
                  },
                  {
                    "size": "144"
                  },
                  {
                    "size": "1"
                  }
                ]
              }
            }
          },
          "dtype": {
            "type": "DT_FLOAT"
          }
        }
      },
      {
        "name": "StatefulPartitionedCall/deeplabv3p/expanded_conv_2_depthwise/depthwise_bn_offset",
        "op": "Const",
        "attr": {
          "value": {
            "tensor": {
              "dtype": "DT_FLOAT",
              "tensorShape": {
                "dim": [
                  {
                    "size": "144"
                  }
                ]
              }
            }
          },
          "dtype": {
            "type": "DT_FLOAT"
          }
        }
      },
      {
        "name": "StatefulPartitionedCall/deeplabv3p/expanded_conv_2_project/Conv2D_weights",
        "op": "Const",
        "attr": {
          "value": {
            "tensor": {
              "dtype": "DT_FLOAT",
              "tensorShape": {
                "dim": [
                  {
                    "size": "1"
                  },
                  {
                    "size": "1"
                  },
                  {
                    "size": "144"
                  },
                  {
                    "size": "24"
                  }
                ]
              }
            }
          },
          "dtype": {
            "type": "DT_FLOAT"
          }
        }
      },
      {
        "name": "StatefulPartitionedCall/deeplabv3p/expanded_conv_14_depthwise_BN/FusedBatchNormV3/Offset",
        "op": "Const",
        "attr": {
          "value": {
            "tensor": {
              "dtype": "DT_FLOAT",
              "tensorShape": {
                "dim": [
                  {
                    "size": "960"
                  }
                ]
              }
            }
          },
          "dtype": {
            "type": "DT_FLOAT"
          }
        }
      },
      {
        "name": "StatefulPartitionedCall/deeplabv3p/expanded_conv_2_project/Conv2D_bn_offset",
        "op": "Const",
        "attr": {
          "value": {
            "tensor": {
              "dtype": "DT_FLOAT",
              "tensorShape": {
                "dim": [
                  {
                    "size": "24"
                  }
                ]
              }
            }
          },
          "dtype": {
            "type": "DT_FLOAT"
          }
        }
      },
      {
        "name": "StatefulPartitionedCall/deeplabv3p/expanded_conv_3_expand/Conv2D_weights",
        "op": "Const",
        "attr": {
          "value": {
            "tensor": {
              "dtype": "DT_FLOAT",
              "tensorShape": {
                "dim": [
                  {
                    "size": "1"
                  },
                  {
                    "size": "1"
                  },
                  {
                    "size": "24"
                  },
                  {
                    "size": "144"
                  }
                ]
              }
            }
          },
          "dtype": {
            "type": "DT_FLOAT"
          }
        }
      },
      {
        "name": "StatefulPartitionedCall/deeplabv3p/expanded_conv_3_expand/Conv2D_bn_offset",
        "op": "Const",
        "attr": {
          "dtype": {
            "type": "DT_FLOAT"
          },
          "value": {
            "tensor": {
              "dtype": "DT_FLOAT",
              "tensorShape": {
                "dim": [
                  {
                    "size": "144"
                  }
                ]
              }
            }
          }
        }
      },
      {
        "name": "StatefulPartitionedCall/deeplabv3p/expanded_conv_3_depthwise/depthwise_weights",
        "op": "Const",
        "attr": {
          "value": {
            "tensor": {
              "dtype": "DT_FLOAT",
              "tensorShape": {
                "dim": [
                  {
                    "size": "3"
                  },
                  {
                    "size": "3"
                  },
                  {
                    "size": "144"
                  },
                  {
                    "size": "1"
                  }
                ]
              }
            }
          },
          "dtype": {
            "type": "DT_FLOAT"
          }
        }
      },
      {
        "name": "StatefulPartitionedCall/deeplabv3p/expanded_conv_3_depthwise/depthwise_bn_offset",
        "op": "Const",
        "attr": {
          "value": {
            "tensor": {
              "dtype": "DT_FLOAT",
              "tensorShape": {
                "dim": [
                  {
                    "size": "144"
                  }
                ]
              }
            }
          },
          "dtype": {
            "type": "DT_FLOAT"
          }
        }
      },
      {
        "name": "StatefulPartitionedCall/deeplabv3p/expanded_conv_3_project/Conv2D_weights",
        "op": "Const",
        "attr": {
          "value": {
            "tensor": {
              "dtype": "DT_FLOAT",
              "tensorShape": {
                "dim": [
                  {
                    "size": "1"
                  },
                  {
                    "size": "1"
                  },
                  {
                    "size": "144"
                  },
                  {
                    "size": "32"
                  }
                ]
              }
            }
          },
          "dtype": {
            "type": "DT_FLOAT"
          }
        }
      },
      {
        "name": "StatefulPartitionedCall/deeplabv3p/expanded_conv_3_project/Conv2D_bn_offset",
        "op": "Const",
        "attr": {
          "dtype": {
            "type": "DT_FLOAT"
          },
          "value": {
            "tensor": {
              "dtype": "DT_FLOAT",
              "tensorShape": {
                "dim": [
                  {
                    "size": "32"
                  }
                ]
              }
            }
          }
        }
      },
      {
        "name": "StatefulPartitionedCall/deeplabv3p/expanded_conv_4_expand/Conv2D_weights",
        "op": "Const",
        "attr": {
          "dtype": {
            "type": "DT_FLOAT"
          },
          "value": {
            "tensor": {
              "dtype": "DT_FLOAT",
              "tensorShape": {
                "dim": [
                  {
                    "size": "1"
                  },
                  {
                    "size": "1"
                  },
                  {
                    "size": "32"
                  },
                  {
                    "size": "192"
                  }
                ]
              }
            }
          }
        }
      },
      {
        "name": "StatefulPartitionedCall/deeplabv3p/expanded_conv_13_depthwise_BN/FusedBatchNormV3/Scaled",
        "op": "Const",
        "attr": {
          "value": {
            "tensor": {
              "dtype": "DT_FLOAT",
              "tensorShape": {
                "dim": [
                  {
                    "size": "576"
                  }
                ]
              }
            }
          },
          "dtype": {
            "type": "DT_FLOAT"
          }
        }
      },
      {
        "name": "StatefulPartitionedCall/deeplabv3p/expanded_conv_4_expand/Conv2D_bn_offset",
        "op": "Const",
        "attr": {
          "value": {
            "tensor": {
              "dtype": "DT_FLOAT",
              "tensorShape": {
                "dim": [
                  {
                    "size": "192"
                  }
                ]
              }
            }
          },
          "dtype": {
            "type": "DT_FLOAT"
          }
        }
      },
      {
        "name": "StatefulPartitionedCall/deeplabv3p/expanded_conv_4_depthwise/depthwise_weights",
        "op": "Const",
        "attr": {
          "value": {
            "tensor": {
              "dtype": "DT_FLOAT",
              "tensorShape": {
                "dim": [
                  {
                    "size": "3"
                  },
                  {
                    "size": "3"
                  },
                  {
                    "size": "192"
                  },
                  {
                    "size": "1"
                  }
                ]
              }
            }
          },
          "dtype": {
            "type": "DT_FLOAT"
          }
        }
      },
      {
        "name": "StatefulPartitionedCall/deeplabv3p/expanded_conv_4_depthwise/depthwise_bn_offset",
        "op": "Const",
        "attr": {
          "value": {
            "tensor": {
              "dtype": "DT_FLOAT",
              "tensorShape": {
                "dim": [
                  {
                    "size": "192"
                  }
                ]
              }
            }
          },
          "dtype": {
            "type": "DT_FLOAT"
          }
        }
      },
      {
        "name": "StatefulPartitionedCall/deeplabv3p/expanded_conv_4_project/Conv2D_weights",
        "op": "Const",
        "attr": {
          "value": {
            "tensor": {
              "dtype": "DT_FLOAT",
              "tensorShape": {
                "dim": [
                  {
                    "size": "1"
                  },
                  {
                    "size": "1"
                  },
                  {
                    "size": "192"
                  },
                  {
                    "size": "32"
                  }
                ]
              }
            }
          },
          "dtype": {
            "type": "DT_FLOAT"
          }
        }
      },
      {
        "name": "StatefulPartitionedCall/deeplabv3p/expanded_conv_4_project/Conv2D_bn_offset",
        "op": "Const",
        "attr": {
          "value": {
            "tensor": {
              "dtype": "DT_FLOAT",
              "tensorShape": {
                "dim": [
                  {
                    "size": "32"
                  }
                ]
              }
            }
          },
          "dtype": {
            "type": "DT_FLOAT"
          }
        }
      },
      {
        "name": "StatefulPartitionedCall/deeplabv3p/expanded_conv_5_expand/Conv2D_weights",
        "op": "Const",
        "attr": {
          "value": {
            "tensor": {
              "dtype": "DT_FLOAT",
              "tensorShape": {
                "dim": [
                  {
                    "size": "1"
                  },
                  {
                    "size": "1"
                  },
                  {
                    "size": "32"
                  },
                  {
                    "size": "192"
                  }
                ]
              }
            }
          },
          "dtype": {
            "type": "DT_FLOAT"
          }
        }
      },
      {
        "name": "StatefulPartitionedCall/deeplabv3p/expanded_conv_13_depthwise_BN/FusedBatchNormV3/Offset",
        "op": "Const",
        "attr": {
          "value": {
            "tensor": {
              "dtype": "DT_FLOAT",
              "tensorShape": {
                "dim": [
                  {
                    "size": "576"
                  }
                ]
              }
            }
          },
          "dtype": {
            "type": "DT_FLOAT"
          }
        }
      },
      {
        "name": "StatefulPartitionedCall/deeplabv3p/expanded_conv_5_expand/Conv2D_bn_offset",
        "op": "Const",
        "attr": {
          "value": {
            "tensor": {
              "dtype": "DT_FLOAT",
              "tensorShape": {
                "dim": [
                  {
                    "size": "192"
                  }
                ]
              }
            }
          },
          "dtype": {
            "type": "DT_FLOAT"
          }
        }
      },
      {
        "name": "StatefulPartitionedCall/deeplabv3p/expanded_conv_5_depthwise/depthwise_weights",
        "op": "Const",
        "attr": {
          "value": {
            "tensor": {
              "dtype": "DT_FLOAT",
              "tensorShape": {
                "dim": [
                  {
                    "size": "3"
                  },
                  {
                    "size": "3"
                  },
                  {
                    "size": "192"
                  },
                  {
                    "size": "1"
                  }
                ]
              }
            }
          },
          "dtype": {
            "type": "DT_FLOAT"
          }
        }
      },
      {
        "name": "StatefulPartitionedCall/deeplabv3p/expanded_conv_5_depthwise/depthwise_bn_offset",
        "op": "Const",
        "attr": {
          "value": {
            "tensor": {
              "dtype": "DT_FLOAT",
              "tensorShape": {
                "dim": [
                  {
                    "size": "192"
                  }
                ]
              }
            }
          },
          "dtype": {
            "type": "DT_FLOAT"
          }
        }
      },
      {
        "name": "StatefulPartitionedCall/deeplabv3p/expanded_conv_5_project/Conv2D_weights",
        "op": "Const",
        "attr": {
          "dtype": {
            "type": "DT_FLOAT"
          },
          "value": {
            "tensor": {
              "dtype": "DT_FLOAT",
              "tensorShape": {
                "dim": [
                  {
                    "size": "1"
                  },
                  {
                    "size": "1"
                  },
                  {
                    "size": "192"
                  },
                  {
                    "size": "32"
                  }
                ]
              }
            }
          }
        }
      },
      {
        "name": "StatefulPartitionedCall/deeplabv3p/expanded_conv_5_project/Conv2D_bn_offset",
        "op": "Const",
        "attr": {
          "value": {
            "tensor": {
              "dtype": "DT_FLOAT",
              "tensorShape": {
                "dim": [
                  {
                    "size": "32"
                  }
                ]
              }
            }
          },
          "dtype": {
            "type": "DT_FLOAT"
          }
        }
      },
      {
        "name": "StatefulPartitionedCall/deeplabv3p/expanded_conv_6_expand/Conv2D_weights",
        "op": "Const",
        "attr": {
          "value": {
            "tensor": {
              "dtype": "DT_FLOAT",
              "tensorShape": {
                "dim": [
                  {
                    "size": "1"
                  },
                  {
                    "size": "1"
                  },
                  {
                    "size": "32"
                  },
                  {
                    "size": "192"
                  }
                ]
              }
            }
          },
          "dtype": {
            "type": "DT_FLOAT"
          }
        }
      },
      {
        "name": "StatefulPartitionedCall/deeplabv3p/expanded_conv_6_expand/Conv2D_bn_offset",
        "op": "Const",
        "attr": {
          "dtype": {
            "type": "DT_FLOAT"
          },
          "value": {
            "tensor": {
              "dtype": "DT_FLOAT",
              "tensorShape": {
                "dim": [
                  {
                    "size": "192"
                  }
                ]
              }
            }
          }
        }
      },
      {
        "name": "StatefulPartitionedCall/deeplabv3p/expanded_conv_12_depthwise_BN/FusedBatchNormV3/Scaled",
        "op": "Const",
        "attr": {
          "dtype": {
            "type": "DT_FLOAT"
          },
          "value": {
            "tensor": {
              "dtype": "DT_FLOAT",
              "tensorShape": {
                "dim": [
                  {
                    "size": "576"
                  }
                ]
              }
            }
          }
        }
      },
      {
        "name": "StatefulPartitionedCall/deeplabv3p/expanded_conv_6_depthwise/depthwise_weights",
        "op": "Const",
        "attr": {
          "dtype": {
            "type": "DT_FLOAT"
          },
          "value": {
            "tensor": {
              "dtype": "DT_FLOAT",
              "tensorShape": {
                "dim": [
                  {
                    "size": "3"
                  },
                  {
                    "size": "3"
                  },
                  {
                    "size": "192"
                  },
                  {
                    "size": "1"
                  }
                ]
              }
            }
          }
        }
      },
      {
        "name": "StatefulPartitionedCall/deeplabv3p/expanded_conv_6_depthwise/depthwise_bn_offset",
        "op": "Const",
        "attr": {
          "value": {
            "tensor": {
              "dtype": "DT_FLOAT",
              "tensorShape": {
                "dim": [
                  {
                    "size": "192"
                  }
                ]
              }
            }
          },
          "dtype": {
            "type": "DT_FLOAT"
          }
        }
      },
      {
        "name": "StatefulPartitionedCall/deeplabv3p/expanded_conv_6_project/Conv2D_weights",
        "op": "Const",
        "attr": {
          "dtype": {
            "type": "DT_FLOAT"
          },
          "value": {
            "tensor": {
              "dtype": "DT_FLOAT",
              "tensorShape": {
                "dim": [
                  {
                    "size": "1"
                  },
                  {
                    "size": "1"
                  },
                  {
                    "size": "192"
                  },
                  {
                    "size": "64"
                  }
                ]
              }
            }
          }
        }
      },
      {
        "name": "StatefulPartitionedCall/deeplabv3p/expanded_conv_6_project/Conv2D_bn_offset",
        "op": "Const",
        "attr": {
          "value": {
            "tensor": {
              "dtype": "DT_FLOAT",
              "tensorShape": {
                "dim": [
                  {
                    "size": "64"
                  }
                ]
              }
            }
          },
          "dtype": {
            "type": "DT_FLOAT"
          }
        }
      },
      {
        "name": "StatefulPartitionedCall/deeplabv3p/expanded_conv_7_expand/Conv2D_weights",
        "op": "Const",
        "attr": {
          "value": {
            "tensor": {
              "dtype": "DT_FLOAT",
              "tensorShape": {
                "dim": [
                  {
                    "size": "1"
                  },
                  {
                    "size": "1"
                  },
                  {
                    "size": "64"
                  },
                  {
                    "size": "384"
                  }
                ]
              }
            }
          },
          "dtype": {
            "type": "DT_FLOAT"
          }
        }
      },
      {
        "name": "StatefulPartitionedCall/deeplabv3p/expanded_conv_7_expand/Conv2D_bn_offset",
        "op": "Const",
        "attr": {
          "dtype": {
            "type": "DT_FLOAT"
          },
          "value": {
            "tensor": {
              "dtype": "DT_FLOAT",
              "tensorShape": {
                "dim": [
                  {
                    "size": "384"
                  }
                ]
              }
            }
          }
        }
      },
      {
        "name": "StatefulPartitionedCall/deeplabv3p/expanded_conv_12_depthwise_BN/FusedBatchNormV3/Offset",
        "op": "Const",
        "attr": {
          "value": {
            "tensor": {
              "dtype": "DT_FLOAT",
              "tensorShape": {
                "dim": [
                  {
                    "size": "576"
                  }
                ]
              }
            }
          },
          "dtype": {
            "type": "DT_FLOAT"
          }
        }
      },
      {
        "name": "StatefulPartitionedCall/deeplabv3p/expanded_conv_7_project/Conv2D_weights",
        "op": "Const",
        "attr": {
          "value": {
            "tensor": {
              "dtype": "DT_FLOAT",
              "tensorShape": {
                "dim": [
                  {
                    "size": "1"
                  },
                  {
                    "size": "1"
                  },
                  {
                    "size": "384"
                  },
                  {
                    "size": "64"
                  }
                ]
              }
            }
          },
          "dtype": {
            "type": "DT_FLOAT"
          }
        }
      },
      {
        "name": "StatefulPartitionedCall/deeplabv3p/expanded_conv_7_project/Conv2D_bn_offset",
        "op": "Const",
        "attr": {
          "dtype": {
            "type": "DT_FLOAT"
          },
          "value": {
            "tensor": {
              "dtype": "DT_FLOAT",
              "tensorShape": {
                "dim": [
                  {
                    "size": "64"
                  }
                ]
              }
            }
          }
        }
      },
      {
        "name": "StatefulPartitionedCall/deeplabv3p/expanded_conv_8_expand/Conv2D_weights",
        "op": "Const",
        "attr": {
          "value": {
            "tensor": {
              "dtype": "DT_FLOAT",
              "tensorShape": {
                "dim": [
                  {
                    "size": "1"
                  },
                  {
                    "size": "1"
                  },
                  {
                    "size": "64"
                  },
                  {
                    "size": "384"
                  }
                ]
              }
            }
          },
          "dtype": {
            "type": "DT_FLOAT"
          }
        }
      },
      {
        "name": "StatefulPartitionedCall/deeplabv3p/expanded_conv_8_expand/Conv2D_bn_offset",
        "op": "Const",
        "attr": {
          "value": {
            "tensor": {
              "dtype": "DT_FLOAT",
              "tensorShape": {
                "dim": [
                  {
                    "size": "384"
                  }
                ]
              }
            }
          },
          "dtype": {
            "type": "DT_FLOAT"
          }
        }
      },
      {
        "name": "StatefulPartitionedCall/deeplabv3p/expanded_conv_8_project/Conv2D_weights",
        "op": "Const",
        "attr": {
          "value": {
            "tensor": {
              "dtype": "DT_FLOAT",
              "tensorShape": {
                "dim": [
                  {
                    "size": "1"
                  },
                  {
                    "size": "1"
                  },
                  {
                    "size": "384"
                  },
                  {
                    "size": "64"
                  }
                ]
              }
            }
          },
          "dtype": {
            "type": "DT_FLOAT"
          }
        }
      },
      {
        "name": "StatefulPartitionedCall/deeplabv3p/expanded_conv_11_depthwise_BN/FusedBatchNormV3/Scaled",
        "op": "Const",
        "attr": {
          "value": {
            "tensor": {
              "dtype": "DT_FLOAT",
              "tensorShape": {
                "dim": [
                  {
                    "size": "576"
                  }
                ]
              }
            }
          },
          "dtype": {
            "type": "DT_FLOAT"
          }
        }
      },
      {
        "name": "StatefulPartitionedCall/deeplabv3p/expanded_conv_8_project/Conv2D_bn_offset",
        "op": "Const",
        "attr": {
          "value": {
            "tensor": {
              "dtype": "DT_FLOAT",
              "tensorShape": {
                "dim": [
                  {
                    "size": "64"
                  }
                ]
              }
            }
          },
          "dtype": {
            "type": "DT_FLOAT"
          }
        }
      },
      {
        "name": "StatefulPartitionedCall/deeplabv3p/expanded_conv_9_expand/Conv2D_weights",
        "op": "Const",
        "attr": {
          "value": {
            "tensor": {
              "dtype": "DT_FLOAT",
              "tensorShape": {
                "dim": [
                  {
                    "size": "1"
                  },
                  {
                    "size": "1"
                  },
                  {
                    "size": "64"
                  },
                  {
                    "size": "384"
                  }
                ]
              }
            }
          },
          "dtype": {
            "type": "DT_FLOAT"
          }
        }
      },
      {
        "name": "StatefulPartitionedCall/deeplabv3p/expanded_conv_9_expand/Conv2D_bn_offset",
        "op": "Const",
        "attr": {
          "value": {
            "tensor": {
              "dtype": "DT_FLOAT",
              "tensorShape": {
                "dim": [
                  {
                    "size": "384"
                  }
                ]
              }
            }
          },
          "dtype": {
            "type": "DT_FLOAT"
          }
        }
      },
      {
        "name": "StatefulPartitionedCall/deeplabv3p/expanded_conv_9_project/Conv2D_weights",
        "op": "Const",
        "attr": {
          "value": {
            "tensor": {
              "dtype": "DT_FLOAT",
              "tensorShape": {
                "dim": [
                  {
                    "size": "1"
                  },
                  {
                    "size": "1"
                  },
                  {
                    "size": "384"
                  },
                  {
                    "size": "64"
                  }
                ]
              }
            }
          },
          "dtype": {
            "type": "DT_FLOAT"
          }
        }
      },
      {
        "name": "StatefulPartitionedCall/deeplabv3p/expanded_conv_11_depthwise_BN/FusedBatchNormV3/Offset",
        "op": "Const",
        "attr": {
          "value": {
            "tensor": {
              "dtype": "DT_FLOAT",
              "tensorShape": {
                "dim": [
                  {
                    "size": "576"
                  }
                ]
              }
            }
          },
          "dtype": {
            "type": "DT_FLOAT"
          }
        }
      },
      {
        "name": "StatefulPartitionedCall/deeplabv3p/expanded_conv_9_project/Conv2D_bn_offset",
        "op": "Const",
        "attr": {
          "value": {
            "tensor": {
              "dtype": "DT_FLOAT",
              "tensorShape": {
                "dim": [
                  {
                    "size": "64"
                  }
                ]
              }
            }
          },
          "dtype": {
            "type": "DT_FLOAT"
          }
        }
      },
      {
        "name": "StatefulPartitionedCall/deeplabv3p/expanded_conv_10_expand/Conv2D_weights",
        "op": "Const",
        "attr": {
          "value": {
            "tensor": {
              "dtype": "DT_FLOAT",
              "tensorShape": {
                "dim": [
                  {
                    "size": "1"
                  },
                  {
                    "size": "1"
                  },
                  {
                    "size": "64"
                  },
                  {
                    "size": "384"
                  }
                ]
              }
            }
          },
          "dtype": {
            "type": "DT_FLOAT"
          }
        }
      },
      {
        "name": "StatefulPartitionedCall/deeplabv3p/expanded_conv_10_expand/Conv2D_bn_offset",
        "op": "Const",
        "attr": {
          "value": {
            "tensor": {
              "dtype": "DT_FLOAT",
              "tensorShape": {
                "dim": [
                  {
                    "size": "384"
                  }
                ]
              }
            }
          },
          "dtype": {
            "type": "DT_FLOAT"
          }
        }
      },
      {
        "name": "StatefulPartitionedCall/deeplabv3p/expanded_conv_10_project/Conv2D_weights",
        "op": "Const",
        "attr": {
          "value": {
            "tensor": {
              "dtype": "DT_FLOAT",
              "tensorShape": {
                "dim": [
                  {
                    "size": "1"
                  },
                  {
                    "size": "1"
                  },
                  {
                    "size": "384"
                  },
                  {
                    "size": "96"
                  }
                ]
              }
            }
          },
          "dtype": {
            "type": "DT_FLOAT"
          }
        }
      },
      {
        "name": "StatefulPartitionedCall/deeplabv3p/expanded_conv_10_project/Conv2D_bn_offset",
        "op": "Const",
        "attr": {
          "value": {
            "tensor": {
              "dtype": "DT_FLOAT",
              "tensorShape": {
                "dim": [
                  {
                    "size": "96"
                  }
                ]
              }
            }
          },
          "dtype": {
            "type": "DT_FLOAT"
          }
        }
      },
      {
        "name": "StatefulPartitionedCall/deeplabv3p/expanded_conv_11_expand/Conv2D_weights",
        "op": "Const",
        "attr": {
          "dtype": {
            "type": "DT_FLOAT"
          },
          "value": {
            "tensor": {
              "dtype": "DT_FLOAT",
              "tensorShape": {
                "dim": [
                  {
                    "size": "1"
                  },
                  {
                    "size": "1"
                  },
                  {
                    "size": "96"
                  },
                  {
                    "size": "576"
                  }
                ]
              }
            }
          }
        }
      },
      {
        "name": "StatefulPartitionedCall/deeplabv3p/expanded_conv_10_depthwise_BN/FusedBatchNormV3/Scaled",
        "op": "Const",
        "attr": {
          "dtype": {
            "type": "DT_FLOAT"
          },
          "value": {
            "tensor": {
              "dtype": "DT_FLOAT",
              "tensorShape": {
                "dim": [
                  {
                    "size": "384"
                  }
                ]
              }
            }
          }
        }
      },
      {
        "name": "StatefulPartitionedCall/deeplabv3p/expanded_conv_11_expand/Conv2D_bn_offset",
        "op": "Const",
        "attr": {
          "dtype": {
            "type": "DT_FLOAT"
          },
          "value": {
            "tensor": {
              "dtype": "DT_FLOAT",
              "tensorShape": {
                "dim": [
                  {
                    "size": "576"
                  }
                ]
              }
            }
          }
        }
      },
      {
        "name": "StatefulPartitionedCall/deeplabv3p/expanded_conv_11_project/Conv2D_weights",
        "op": "Const",
        "attr": {
          "dtype": {
            "type": "DT_FLOAT"
          },
          "value": {
            "tensor": {
              "dtype": "DT_FLOAT",
              "tensorShape": {
                "dim": [
                  {
                    "size": "1"
                  },
                  {
                    "size": "1"
                  },
                  {
                    "size": "576"
                  },
                  {
                    "size": "96"
                  }
                ]
              }
            }
          }
        }
      },
      {
        "name": "StatefulPartitionedCall/deeplabv3p/expanded_conv_11_project/Conv2D_bn_offset",
        "op": "Const",
        "attr": {
          "dtype": {
            "type": "DT_FLOAT"
          },
          "value": {
            "tensor": {
              "dtype": "DT_FLOAT",
              "tensorShape": {
                "dim": [
                  {
                    "size": "96"
                  }
                ]
              }
            }
          }
        }
      },
      {
        "name": "StatefulPartitionedCall/deeplabv3p/expanded_conv_12_expand/Conv2D_weights",
        "op": "Const",
        "attr": {
          "value": {
            "tensor": {
              "dtype": "DT_FLOAT",
              "tensorShape": {
                "dim": [
                  {
                    "size": "1"
                  },
                  {
                    "size": "1"
                  },
                  {
                    "size": "96"
                  },
                  {
                    "size": "576"
                  }
                ]
              }
            }
          },
          "dtype": {
            "type": "DT_FLOAT"
          }
        }
      },
      {
        "name": "StatefulPartitionedCall/deeplabv3p/expanded_conv_10_depthwise_BN/FusedBatchNormV3/Offset",
        "op": "Const",
        "attr": {
          "dtype": {
            "type": "DT_FLOAT"
          },
          "value": {
            "tensor": {
              "dtype": "DT_FLOAT",
              "tensorShape": {
                "dim": [
                  {
                    "size": "384"
                  }
                ]
              }
            }
          }
        }
      },
      {
        "name": "StatefulPartitionedCall/deeplabv3p/expanded_conv_12_expand/Conv2D_bn_offset",
        "op": "Const",
        "attr": {
          "value": {
            "tensor": {
              "dtype": "DT_FLOAT",
              "tensorShape": {
                "dim": [
                  {
                    "size": "576"
                  }
                ]
              }
            }
          },
          "dtype": {
            "type": "DT_FLOAT"
          }
        }
      },
      {
        "name": "StatefulPartitionedCall/deeplabv3p/expanded_conv_12_project/Conv2D_weights",
        "op": "Const",
        "attr": {
          "dtype": {
            "type": "DT_FLOAT"
          },
          "value": {
            "tensor": {
              "dtype": "DT_FLOAT",
              "tensorShape": {
                "dim": [
                  {
                    "size": "1"
                  },
                  {
                    "size": "1"
                  },
                  {
                    "size": "576"
                  },
                  {
                    "size": "96"
                  }
                ]
              }
            }
          }
        }
      },
      {
        "name": "StatefulPartitionedCall/deeplabv3p/expanded_conv_12_project/Conv2D_bn_offset",
        "op": "Const",
        "attr": {
          "value": {
            "tensor": {
              "dtype": "DT_FLOAT",
              "tensorShape": {
                "dim": [
                  {
                    "size": "96"
                  }
                ]
              }
            }
          },
          "dtype": {
            "type": "DT_FLOAT"
          }
        }
      },
      {
        "name": "StatefulPartitionedCall/deeplabv3p/expanded_conv_13_expand/Conv2D_weights",
        "op": "Const",
        "attr": {
          "value": {
            "tensor": {
              "dtype": "DT_FLOAT",
              "tensorShape": {
                "dim": [
                  {
                    "size": "1"
                  },
                  {
                    "size": "1"
                  },
                  {
                    "size": "96"
                  },
                  {
                    "size": "576"
                  }
                ]
              }
            }
          },
          "dtype": {
            "type": "DT_FLOAT"
          }
        }
      },
      {
        "name": "StatefulPartitionedCall/deeplabv3p/expanded_conv_13_expand/Conv2D_bn_offset",
        "op": "Const",
        "attr": {
          "value": {
            "tensor": {
              "dtype": "DT_FLOAT",
              "tensorShape": {
                "dim": [
                  {
                    "size": "576"
                  }
                ]
              }
            }
          },
          "dtype": {
            "type": "DT_FLOAT"
          }
        }
      },
      {
        "name": "StatefulPartitionedCall/deeplabv3p/expanded_conv_9_depthwise_BN/FusedBatchNormV3/Scaled",
        "op": "Const",
        "attr": {
          "value": {
            "tensor": {
              "dtype": "DT_FLOAT",
              "tensorShape": {
                "dim": [
                  {
                    "size": "384"
                  }
                ]
              }
            }
          },
          "dtype": {
            "type": "DT_FLOAT"
          }
        }
      },
      {
        "name": "StatefulPartitionedCall/deeplabv3p/expanded_conv_13_project/Conv2D_weights",
        "op": "Const",
        "attr": {
          "value": {
            "tensor": {
              "dtype": "DT_FLOAT",
              "tensorShape": {
                "dim": [
                  {
                    "size": "1"
                  },
                  {
                    "size": "1"
                  },
                  {
                    "size": "576"
                  },
                  {
                    "size": "160"
                  }
                ]
              }
            }
          },
          "dtype": {
            "type": "DT_FLOAT"
          }
        }
      },
      {
        "name": "StatefulPartitionedCall/deeplabv3p/expanded_conv_13_project/Conv2D_bn_offset",
        "op": "Const",
        "attr": {
          "dtype": {
            "type": "DT_FLOAT"
          },
          "value": {
            "tensor": {
              "dtype": "DT_FLOAT",
              "tensorShape": {
                "dim": [
                  {
                    "size": "160"
                  }
                ]
              }
            }
          }
        }
      },
      {
        "name": "StatefulPartitionedCall/deeplabv3p/expanded_conv_14_expand/Conv2D_weights",
        "op": "Const",
        "attr": {
          "value": {
            "tensor": {
              "dtype": "DT_FLOAT",
              "tensorShape": {
                "dim": [
                  {
                    "size": "1"
                  },
                  {
                    "size": "1"
                  },
                  {
                    "size": "160"
                  },
                  {
                    "size": "960"
                  }
                ]
              }
            }
          },
          "dtype": {
            "type": "DT_FLOAT"
          }
        }
      },
      {
        "name": "StatefulPartitionedCall/deeplabv3p/expanded_conv_14_expand/Conv2D_bn_offset",
        "op": "Const",
        "attr": {
          "value": {
            "tensor": {
              "dtype": "DT_FLOAT",
              "tensorShape": {
                "dim": [
                  {
                    "size": "960"
                  }
                ]
              }
            }
          },
          "dtype": {
            "type": "DT_FLOAT"
          }
        }
      },
      {
        "name": "StatefulPartitionedCall/deeplabv3p/expanded_conv_9_depthwise_BN/FusedBatchNormV3/Offset",
        "op": "Const",
        "attr": {
          "dtype": {
            "type": "DT_FLOAT"
          },
          "value": {
            "tensor": {
              "dtype": "DT_FLOAT",
              "tensorShape": {
                "dim": [
                  {
                    "size": "384"
                  }
                ]
              }
            }
          }
        }
      },
      {
        "name": "StatefulPartitionedCall/deeplabv3p/expanded_conv_14_project/Conv2D_weights",
        "op": "Const",
        "attr": {
          "value": {
            "tensor": {
              "dtype": "DT_FLOAT",
              "tensorShape": {
                "dim": [
                  {
                    "size": "1"
                  },
                  {
                    "size": "1"
                  },
                  {
                    "size": "960"
                  },
                  {
                    "size": "160"
                  }
                ]
              }
            }
          },
          "dtype": {
            "type": "DT_FLOAT"
          }
        }
      },
      {
        "name": "StatefulPartitionedCall/deeplabv3p/expanded_conv_14_project/Conv2D_bn_offset",
        "op": "Const",
        "attr": {
          "dtype": {
            "type": "DT_FLOAT"
          },
          "value": {
            "tensor": {
              "dtype": "DT_FLOAT",
              "tensorShape": {
                "dim": [
                  {
                    "size": "160"
                  }
                ]
              }
            }
          }
        }
      },
      {
        "name": "StatefulPartitionedCall/deeplabv3p/expanded_conv_15_expand/Conv2D_weights",
        "op": "Const",
        "attr": {
          "value": {
            "tensor": {
              "dtype": "DT_FLOAT",
              "tensorShape": {
                "dim": [
                  {
                    "size": "1"
                  },
                  {
                    "size": "1"
                  },
                  {
                    "size": "160"
                  },
                  {
                    "size": "960"
                  }
                ]
              }
            }
          },
          "dtype": {
            "type": "DT_FLOAT"
          }
        }
      },
      {
        "name": "StatefulPartitionedCall/deeplabv3p/expanded_conv_15_expand/Conv2D_bn_offset",
        "op": "Const",
        "attr": {
          "value": {
            "tensor": {
              "dtype": "DT_FLOAT",
              "tensorShape": {
                "dim": [
                  {
                    "size": "960"
                  }
                ]
              }
            }
          },
          "dtype": {
            "type": "DT_FLOAT"
          }
        }
      },
      {
        "name": "StatefulPartitionedCall/deeplabv3p/expanded_conv_15_project/Conv2D_weights",
        "op": "Const",
        "attr": {
          "value": {
            "tensor": {
              "dtype": "DT_FLOAT",
              "tensorShape": {
                "dim": [
                  {
                    "size": "1"
                  },
                  {
                    "size": "1"
                  },
                  {
                    "size": "960"
                  },
                  {
                    "size": "160"
                  }
                ]
              }
            }
          },
          "dtype": {
            "type": "DT_FLOAT"
          }
        }
      },
      {
        "name": "StatefulPartitionedCall/deeplabv3p/expanded_conv_8_depthwise_BN/FusedBatchNormV3/Scaled",
        "op": "Const",
        "attr": {
          "value": {
            "tensor": {
              "dtype": "DT_FLOAT",
              "tensorShape": {
                "dim": [
                  {
                    "size": "384"
                  }
                ]
              }
            }
          },
          "dtype": {
            "type": "DT_FLOAT"
          }
        }
      },
      {
        "name": "StatefulPartitionedCall/deeplabv3p/expanded_conv_15_project/Conv2D_bn_offset",
        "op": "Const",
        "attr": {
          "value": {
            "tensor": {
              "dtype": "DT_FLOAT",
              "tensorShape": {
                "dim": [
                  {
                    "size": "160"
                  }
                ]
              }
            }
          },
          "dtype": {
            "type": "DT_FLOAT"
          }
        }
      },
      {
        "name": "StatefulPartitionedCall/deeplabv3p/expanded_conv_16_expand/Conv2D_weights",
        "op": "Const",
        "attr": {
          "value": {
            "tensor": {
              "dtype": "DT_FLOAT",
              "tensorShape": {
                "dim": [
                  {
                    "size": "1"
                  },
                  {
                    "size": "1"
                  },
                  {
                    "size": "160"
                  },
                  {
                    "size": "960"
                  }
                ]
              }
            }
          },
          "dtype": {
            "type": "DT_FLOAT"
          }
        }
      },
      {
        "name": "StatefulPartitionedCall/deeplabv3p/expanded_conv_16_expand/Conv2D_bn_offset",
        "op": "Const",
        "attr": {
          "value": {
            "tensor": {
              "dtype": "DT_FLOAT",
              "tensorShape": {
                "dim": [
                  {
                    "size": "960"
                  }
                ]
              }
            }
          },
          "dtype": {
            "type": "DT_FLOAT"
          }
        }
      },
      {
        "name": "StatefulPartitionedCall/deeplabv3p/expanded_conv_16_project/Conv2D_weights",
        "op": "Const",
        "attr": {
          "value": {
            "tensor": {
              "dtype": "DT_FLOAT",
              "tensorShape": {
                "dim": [
                  {
                    "size": "1"
                  },
                  {
                    "size": "1"
                  },
                  {
                    "size": "960"
                  },
                  {
                    "size": "320"
                  }
                ]
              }
            }
          },
          "dtype": {
            "type": "DT_FLOAT"
          }
        }
      },
      {
        "name": "StatefulPartitionedCall/deeplabv3p/expanded_conv_8_depthwise_BN/FusedBatchNormV3/Offset",
        "op": "Const",
        "attr": {
          "value": {
            "tensor": {
              "dtype": "DT_FLOAT",
              "tensorShape": {
                "dim": [
                  {
                    "size": "384"
                  }
                ]
              }
            }
          },
          "dtype": {
            "type": "DT_FLOAT"
          }
        }
      },
      {
        "name": "StatefulPartitionedCall/deeplabv3p/expanded_conv_16_project/Conv2D_bn_offset",
        "op": "Const",
        "attr": {
          "value": {
            "tensor": {
              "dtype": "DT_FLOAT",
              "tensorShape": {
                "dim": [
                  {
                    "size": "320"
                  }
                ]
              }
            }
          },
          "dtype": {
            "type": "DT_FLOAT"
          }
        }
      },
      {
        "name": "StatefulPartitionedCall/deeplabv3p/aspp0/Conv2D_weights",
        "op": "Const",
        "attr": {
          "value": {
            "tensor": {
              "dtype": "DT_FLOAT",
              "tensorShape": {
                "dim": [
                  {
                    "size": "1"
                  },
                  {
                    "size": "1"
                  },
                  {
                    "size": "320"
                  },
                  {
                    "size": "256"
                  }
                ]
              }
            }
          },
          "dtype": {
            "type": "DT_FLOAT"
          }
        }
      },
      {
        "name": "StatefulPartitionedCall/deeplabv3p/aspp0/Conv2D_bn_offset",
        "op": "Const",
        "attr": {
          "dtype": {
            "type": "DT_FLOAT"
          },
          "value": {
            "tensor": {
              "dtype": "DT_FLOAT",
              "tensorShape": {
                "dim": [
                  {
                    "size": "256"
                  }
                ]
              }
            }
          }
        }
      },
      {
        "name": "StatefulPartitionedCall/deeplabv3p/image_pooling/Conv2D_weights",
        "op": "Const",
        "attr": {
          "dtype": {
            "type": "DT_FLOAT"
          },
          "value": {
            "tensor": {
              "dtype": "DT_FLOAT",
              "tensorShape": {
                "dim": [
                  {
                    "size": "1"
                  },
                  {
                    "size": "1"
                  },
                  {
                    "size": "320"
                  },
                  {
                    "size": "256"
                  }
                ]
              }
            }
          }
        }
      },
      {
        "name": "StatefulPartitionedCall/deeplabv3p/image_pooling/Conv2D_bn_offset",
        "op": "Const",
        "attr": {
          "dtype": {
            "type": "DT_FLOAT"
          },
          "value": {
            "tensor": {
              "dtype": "DT_FLOAT",
              "tensorShape": {
                "dim": [
                  {
                    "size": "256"
                  }
                ]
              }
            }
          }
        }
      },
      {
        "name": "StatefulPartitionedCall/deeplabv3p/expanded_conv_7_depthwise_BN/FusedBatchNormV3/Scaled",
        "op": "Const",
        "attr": {
          "dtype": {
            "type": "DT_FLOAT"
          },
          "value": {
            "tensor": {
              "dtype": "DT_FLOAT",
              "tensorShape": {
                "dim": [
                  {
                    "size": "384"
                  }
                ]
              }
            }
          }
        }
      },
      {
        "name": "StatefulPartitionedCall/deeplabv3p/concat_projection/Conv2D_weights",
        "op": "Const",
        "attr": {
          "value": {
            "tensor": {
              "dtype": "DT_FLOAT",
              "tensorShape": {
                "dim": [
                  {
                    "size": "1"
                  },
                  {
                    "size": "1"
                  },
                  {
                    "size": "512"
                  },
                  {
                    "size": "256"
                  }
                ]
              }
            }
          },
          "dtype": {
            "type": "DT_FLOAT"
          }
        }
      },
      {
        "name": "StatefulPartitionedCall/deeplabv3p/concat_projection/Conv2D_bn_offset",
        "op": "Const",
        "attr": {
          "value": {
            "tensor": {
              "dtype": "DT_FLOAT",
              "tensorShape": {
                "dim": [
                  {
                    "size": "256"
                  }
                ]
              }
            }
          },
          "dtype": {
            "type": "DT_FLOAT"
          }
        }
      },
      {
        "name": "StatefulPartitionedCall/deeplabv3p/conv2d/Conv2D_weights",
        "op": "Const",
        "attr": {
          "value": {
            "tensor": {
              "dtype": "DT_FLOAT",
              "tensorShape": {
                "dim": [
                  {
                    "size": "1"
                  },
                  {
                    "size": "1"
                  },
                  {
                    "size": "256"
                  },
                  {
                    "size": "2"
                  }
                ]
              }
            }
          },
          "dtype": {
            "type": "DT_FLOAT"
          }
        }
      },
      {
        "name": "StatefulPartitionedCall/deeplabv3p/expanded_conv_7_depthwise_BN/FusedBatchNormV3/Offset",
        "op": "Const",
        "attr": {
          "value": {
            "tensor": {
              "dtype": "DT_FLOAT",
              "tensorShape": {
                "dim": [
                  {
                    "size": "384"
                  }
                ]
              }
            }
          },
          "dtype": {
            "type": "DT_FLOAT"
          }
        }
      },
      {
        "name": "StatefulPartitionedCall/deeplabv3p/conv2d/Conv2D_bn_offset",
        "op": "Const",
        "attr": {
          "dtype": {
            "type": "DT_FLOAT"
          },
          "value": {
            "tensor": {
              "dtype": "DT_FLOAT",
              "tensorShape": {
                "dim": [
                  {
                    "size": "2"
                  }
                ]
              }
            }
          }
        }
      },
      {
        "name": "StatefulPartitionedCall/deeplabv3p/expanded_conv_16_depthwise_BN/FusedBatchNormV3/Scaled",
        "op": "Const",
        "attr": {
          "value": {
            "tensor": {
              "dtype": "DT_FLOAT",
              "tensorShape": {
                "dim": [
                  {
                    "size": "960"
                  }
                ]
              }
            }
          },
          "dtype": {
            "type": "DT_FLOAT"
          }
        }
      },
      {
        "name": "StatefulPartitionedCall/deeplabv3p/expanded_conv_16_depthwise_BN/FusedBatchNormV3/Offset",
        "op": "Const",
        "attr": {
          "value": {
            "tensor": {
              "dtype": "DT_FLOAT",
              "tensorShape": {
                "dim": [
                  {
                    "size": "960"
                  }
                ]
              }
            }
          },
          "dtype": {
            "type": "DT_FLOAT"
          }
        }
      },
      {
        "name": "StatefulPartitionedCall/deeplabv3p/expanded_conv_15_depthwise_BN/FusedBatchNormV3/Scaled",
        "op": "Const",
        "attr": {
          "value": {
            "tensor": {
              "dtype": "DT_FLOAT",
              "tensorShape": {
                "dim": [
                  {
                    "size": "960"
                  }
                ]
              }
            }
          },
          "dtype": {
            "type": "DT_FLOAT"
          }
        }
      },
      {
        "name": "StatefulPartitionedCall/deeplabv3p/lambda/mul",
        "op": "Mul",
        "input": [
          "input_1",
          "StatefulPartitionedCall/deeplabv3p/lambda/mul/y"
        ],
        "attr": {
          "T": {
            "type": "DT_FLOAT"
          }
        }
      },
      {
        "name": "StatefulPartitionedCall/deeplabv3p/lambda/sub",
        "op": "Sub",
        "input": [
          "StatefulPartitionedCall/deeplabv3p/lambda/mul",
          "StatefulPartitionedCall/deeplabv3p/lambda/sub/y"
        ],
        "attr": {
          "T": {
            "type": "DT_FLOAT"
          }
        }
      },
      {
        "name": "StatefulPartitionedCall/deeplabv3p/re_lu/Relu6",
        "op": "_FusedConv2D",
        "input": [
          "StatefulPartitionedCall/deeplabv3p/lambda/sub",
          "StatefulPartitionedCall/deeplabv3p/Conv/Conv2D_weights",
          "StatefulPartitionedCall/deeplabv3p/Conv/Conv2D_bn_offset"
        ],
        "device": "/device:CPU:0",
        "attr": {
          "fused_ops": {
            "list": {
              "s": [
                "Qmlhc0FkZA==",
                "UmVsdTY="
              ]
            }
          },
          "dilations": {
            "list": {
              "i": [
                "1",
                "1",
                "1",
                "1"
              ]
            }
          },
          "T": {
            "type": "DT_FLOAT"
          },
          "data_format": {
            "s": "TkhXQw=="
          },
          "strides": {
            "list": {
              "i": [
                "1",
                "2",
                "2",
                "1"
              ]
            }
          },
          "explicit_paddings": {
            "list": {}
          },
          "use_cudnn_on_gpu": {
            "b": true
          },
          "num_args": {
            "i": "1"
          },
          "epsilon": {
            "f": 0.0
          },
          "padding": {
            "s": "U0FNRQ=="
          }
        }
      },
      {
        "name": "StatefulPartitionedCall/deeplabv3p/expanded_conv_depthwise/depthwise",
        "op": "FusedDepthwiseConv2dNative",
        "input": [
          "StatefulPartitionedCall/deeplabv3p/re_lu/Relu6",
          "StatefulPartitionedCall/deeplabv3p/expanded_conv_depthwise/depthwise_weights",
          "StatefulPartitionedCall/deeplabv3p/expanded_conv_depthwise/depthwise_bn_offset"
        ],
        "attr": {
          "dilations": {
            "list": {
              "i": [
                "1",
                "1",
                "1",
                "1"
              ]
            }
          },
          "T": {
            "type": "DT_FLOAT"
          },
          "strides": {
            "list": {
              "i": [
                "1",
                "1",
                "1",
                "1"
              ]
            }
          },
          "data_format": {
            "s": "TkhXQw=="
          },
          "explicit_paddings": {
            "list": {}
          },
          "num_args": {
            "i": "1"
          },
          "padding": {
            "s": "U0FNRQ=="
          },
          "fused_ops": {
            "list": {
              "s": [
                "Qmlhc0FkZA==",
                "UmVsdTY="
              ]
            }
          }
        }
      },
      {
        "name": "StatefulPartitionedCall/deeplabv3p/expanded_conv_project_BN/FusedBatchNormV3",
        "op": "_FusedConv2D",
        "input": [
          "StatefulPartitionedCall/deeplabv3p/expanded_conv_depthwise/depthwise",
          "StatefulPartitionedCall/deeplabv3p/expanded_conv_project/Conv2D_weights",
          "StatefulPartitionedCall/deeplabv3p/expanded_conv_project/Conv2D_bn_offset"
        ],
        "device": "/device:CPU:0",
        "attr": {
          "dilations": {
            "list": {
              "i": [
                "1",
                "1",
                "1",
                "1"
              ]
            }
          },
          "T": {
            "type": "DT_FLOAT"
          },
          "data_format": {
            "s": "TkhXQw=="
          },
          "strides": {
            "list": {
              "i": [
                "1",
                "1",
                "1",
                "1"
              ]
            }
          },
          "use_cudnn_on_gpu": {
            "b": true
          },
          "explicit_paddings": {
            "list": {}
          },
          "num_args": {
            "i": "1"
          },
          "epsilon": {
            "f": 0.0
          },
          "padding": {
            "s": "U0FNRQ=="
          },
          "fused_ops": {
            "list": {
              "s": [
                "Qmlhc0FkZA=="
              ]
            }
          }
        }
      },
      {
        "name": "StatefulPartitionedCall/deeplabv3p/expanded_conv_1_expand_relu/Relu6",
        "op": "_FusedConv2D",
        "input": [
          "StatefulPartitionedCall/deeplabv3p/expanded_conv_project_BN/FusedBatchNormV3",
          "StatefulPartitionedCall/deeplabv3p/expanded_conv_1_expand/Conv2D_weights",
          "StatefulPartitionedCall/deeplabv3p/expanded_conv_1_expand/Conv2D_bn_offset"
        ],
        "device": "/device:CPU:0",
        "attr": {
          "num_args": {
            "i": "1"
          },
          "epsilon": {
            "f": 0.0
          },
          "padding": {
            "s": "U0FNRQ=="
          },
          "fused_ops": {
            "list": {
              "s": [
                "Qmlhc0FkZA==",
                "UmVsdTY="
              ]
            }
          },
          "dilations": {
            "list": {
              "i": [
                "1",
                "1",
                "1",
                "1"
              ]
            }
          },
          "T": {
            "type": "DT_FLOAT"
          },
          "data_format": {
            "s": "TkhXQw=="
          },
          "strides": {
            "list": {
              "i": [
                "1",
                "1",
                "1",
                "1"
              ]
            }
          },
          "explicit_paddings": {
            "list": {}
          },
          "use_cudnn_on_gpu": {
            "b": true
          }
        }
      },
      {
        "name": "StatefulPartitionedCall/deeplabv3p/expanded_conv_1_depthwise/depthwise",
        "op": "FusedDepthwiseConv2dNative",
        "input": [
          "StatefulPartitionedCall/deeplabv3p/expanded_conv_1_expand_relu/Relu6",
          "StatefulPartitionedCall/deeplabv3p/expanded_conv_1_depthwise/depthwise_weights",
          "StatefulPartitionedCall/deeplabv3p/expanded_conv_1_depthwise/depthwise_bn_offset"
        ],
        "attr": {
          "num_args": {
            "i": "1"
          },
          "padding": {
            "s": "U0FNRQ=="
          },
          "fused_ops": {
            "list": {
              "s": [
                "Qmlhc0FkZA==",
                "UmVsdTY="
              ]
            }
          },
          "dilations": {
            "list": {
              "i": [
                "1",
                "1",
                "1",
                "1"
              ]
            }
          },
          "T": {
            "type": "DT_FLOAT"
          },
          "strides": {
            "list": {
              "i": [
                "1",
                "2",
                "2",
                "1"
              ]
            }
          },
          "data_format": {
            "s": "TkhXQw=="
          },
          "explicit_paddings": {
            "list": {}
          }
        }
      },
      {
        "name": "StatefulPartitionedCall/deeplabv3p/expanded_conv_1_project_BN/FusedBatchNormV3",
        "op": "_FusedConv2D",
        "input": [
          "StatefulPartitionedCall/deeplabv3p/expanded_conv_1_depthwise/depthwise",
          "StatefulPartitionedCall/deeplabv3p/expanded_conv_1_project/Conv2D_weights",
          "StatefulPartitionedCall/deeplabv3p/expanded_conv_1_project/Conv2D_bn_offset"
        ],
        "device": "/device:CPU:0",
        "attr": {
          "strides": {
            "list": {
              "i": [
                "1",
                "1",
                "1",
                "1"
              ]
            }
          },
          "data_format": {
            "s": "TkhXQw=="
          },
          "use_cudnn_on_gpu": {
            "b": true
          },
          "explicit_paddings": {
            "list": {}
          },
          "num_args": {
            "i": "1"
          },
          "epsilon": {
            "f": 0.0
          },
          "padding": {
            "s": "U0FNRQ=="
          },
          "fused_ops": {
            "list": {
              "s": [
                "Qmlhc0FkZA=="
              ]
            }
          },
          "dilations": {
            "list": {
              "i": [
                "1",
                "1",
                "1",
                "1"
              ]
            }
          },
          "T": {
            "type": "DT_FLOAT"
          }
        }
      },
      {
        "name": "StatefulPartitionedCall/deeplabv3p/expanded_conv_2_expand_relu/Relu6",
        "op": "_FusedConv2D",
        "input": [
          "StatefulPartitionedCall/deeplabv3p/expanded_conv_1_project_BN/FusedBatchNormV3",
          "StatefulPartitionedCall/deeplabv3p/expanded_conv_2_expand/Conv2D_weights",
          "StatefulPartitionedCall/deeplabv3p/expanded_conv_2_expand/Conv2D_bn_offset"
        ],
        "device": "/device:CPU:0",
        "attr": {
          "dilations": {
            "list": {
              "i": [
                "1",
                "1",
                "1",
                "1"
              ]
            }
          },
          "T": {
            "type": "DT_FLOAT"
          },
          "strides": {
            "list": {
              "i": [
                "1",
                "1",
                "1",
                "1"
              ]
            }
          },
          "data_format": {
            "s": "TkhXQw=="
          },
          "explicit_paddings": {
            "list": {}
          },
          "use_cudnn_on_gpu": {
            "b": true
          },
          "num_args": {
            "i": "1"
          },
          "epsilon": {
            "f": 0.0
          },
          "padding": {
            "s": "U0FNRQ=="
          },
          "fused_ops": {
            "list": {
              "s": [
                "Qmlhc0FkZA==",
                "UmVsdTY="
              ]
            }
          }
        }
      },
      {
        "name": "StatefulPartitionedCall/deeplabv3p/expanded_conv_2_depthwise/depthwise",
        "op": "FusedDepthwiseConv2dNative",
        "input": [
          "StatefulPartitionedCall/deeplabv3p/expanded_conv_2_expand_relu/Relu6",
          "StatefulPartitionedCall/deeplabv3p/expanded_conv_2_depthwise/depthwise_weights",
          "StatefulPartitionedCall/deeplabv3p/expanded_conv_2_depthwise/depthwise_bn_offset"
        ],
        "attr": {
          "T": {
            "type": "DT_FLOAT"
          },
          "strides": {
            "list": {
              "i": [
                "1",
                "1",
                "1",
                "1"
              ]
            }
          },
          "data_format": {
            "s": "TkhXQw=="
          },
          "explicit_paddings": {
            "list": {}
          },
          "num_args": {
            "i": "1"
          },
          "padding": {
            "s": "U0FNRQ=="
          },
          "fused_ops": {
            "list": {
              "s": [
                "Qmlhc0FkZA==",
                "UmVsdTY="
              ]
            }
          },
          "dilations": {
            "list": {
              "i": [
                "1",
                "1",
                "1",
                "1"
              ]
            }
          }
        }
      },
      {
        "name": "StatefulPartitionedCall/deeplabv3p/expanded_conv_2_project_BN/FusedBatchNormV3",
        "op": "_FusedConv2D",
        "input": [
          "StatefulPartitionedCall/deeplabv3p/expanded_conv_2_depthwise/depthwise",
          "StatefulPartitionedCall/deeplabv3p/expanded_conv_2_project/Conv2D_weights",
          "StatefulPartitionedCall/deeplabv3p/expanded_conv_2_project/Conv2D_bn_offset"
        ],
        "device": "/device:CPU:0",
        "attr": {
          "dilations": {
            "list": {
              "i": [
                "1",
                "1",
                "1",
                "1"
              ]
            }
          },
          "T": {
            "type": "DT_FLOAT"
          },
          "strides": {
            "list": {
              "i": [
                "1",
                "1",
                "1",
                "1"
              ]
            }
          },
          "data_format": {
            "s": "TkhXQw=="
          },
          "explicit_paddings": {
            "list": {}
          },
          "use_cudnn_on_gpu": {
            "b": true
          },
          "num_args": {
            "i": "1"
          },
          "epsilon": {
            "f": 0.0
          },
          "padding": {
            "s": "U0FNRQ=="
          },
          "fused_ops": {
            "list": {
              "s": [
                "Qmlhc0FkZA=="
              ]
            }
          }
        }
      },
      {
        "name": "StatefulPartitionedCall/deeplabv3p/expanded_conv_2_add/add",
        "op": "AddV2",
        "input": [
          "StatefulPartitionedCall/deeplabv3p/expanded_conv_1_project_BN/FusedBatchNormV3",
          "StatefulPartitionedCall/deeplabv3p/expanded_conv_2_project_BN/FusedBatchNormV3"
        ],
        "attr": {
          "T": {
            "type": "DT_FLOAT"
          }
        }
      },
      {
        "name": "StatefulPartitionedCall/deeplabv3p/expanded_conv_3_expand_relu/Relu6",
        "op": "_FusedConv2D",
        "input": [
          "StatefulPartitionedCall/deeplabv3p/expanded_conv_2_add/add",
          "StatefulPartitionedCall/deeplabv3p/expanded_conv_3_expand/Conv2D_weights",
          "StatefulPartitionedCall/deeplabv3p/expanded_conv_3_expand/Conv2D_bn_offset"
        ],
        "device": "/device:CPU:0",
        "attr": {
          "num_args": {
            "i": "1"
          },
          "epsilon": {
            "f": 0.0
          },
          "padding": {
            "s": "U0FNRQ=="
          },
          "fused_ops": {
            "list": {
              "s": [
                "Qmlhc0FkZA==",
                "UmVsdTY="
              ]
            }
          },
          "dilations": {
            "list": {
              "i": [
                "1",
                "1",
                "1",
                "1"
              ]
            }
          },
          "T": {
            "type": "DT_FLOAT"
          },
          "data_format": {
            "s": "TkhXQw=="
          },
          "strides": {
            "list": {
              "i": [
                "1",
                "1",
                "1",
                "1"
              ]
            }
          },
          "use_cudnn_on_gpu": {
            "b": true
          },
          "explicit_paddings": {
            "list": {}
          }
        }
      },
      {
        "name": "StatefulPartitionedCall/deeplabv3p/expanded_conv_3_depthwise/depthwise",
        "op": "FusedDepthwiseConv2dNative",
        "input": [
          "StatefulPartitionedCall/deeplabv3p/expanded_conv_3_expand_relu/Relu6",
          "StatefulPartitionedCall/deeplabv3p/expanded_conv_3_depthwise/depthwise_weights",
          "StatefulPartitionedCall/deeplabv3p/expanded_conv_3_depthwise/depthwise_bn_offset"
        ],
        "attr": {
          "dilations": {
            "list": {
              "i": [
                "1",
                "1",
                "1",
                "1"
              ]
            }
          },
          "T": {
            "type": "DT_FLOAT"
          },
          "strides": {
            "list": {
              "i": [
                "1",
                "2",
                "2",
                "1"
              ]
            }
          },
          "data_format": {
            "s": "TkhXQw=="
          },
          "explicit_paddings": {
            "list": {}
          },
          "num_args": {
            "i": "1"
          },
          "padding": {
            "s": "U0FNRQ=="
          },
          "fused_ops": {
            "list": {
              "s": [
                "Qmlhc0FkZA==",
                "UmVsdTY="
              ]
            }
          }
        }
      },
      {
        "name": "StatefulPartitionedCall/deeplabv3p/expanded_conv_3_project_BN/FusedBatchNormV3",
        "op": "_FusedConv2D",
        "input": [
          "StatefulPartitionedCall/deeplabv3p/expanded_conv_3_depthwise/depthwise",
          "StatefulPartitionedCall/deeplabv3p/expanded_conv_3_project/Conv2D_weights",
          "StatefulPartitionedCall/deeplabv3p/expanded_conv_3_project/Conv2D_bn_offset"
        ],
        "device": "/device:CPU:0",
        "attr": {
          "epsilon": {
            "f": 0.0
          },
          "padding": {
            "s": "U0FNRQ=="
          },
          "fused_ops": {
            "list": {
              "s": [
                "Qmlhc0FkZA=="
              ]
            }
          },
          "dilations": {
            "list": {
              "i": [
                "1",
                "1",
                "1",
                "1"
              ]
            }
          },
          "T": {
            "type": "DT_FLOAT"
          },
          "strides": {
            "list": {
              "i": [
                "1",
                "1",
                "1",
                "1"
              ]
            }
          },
          "data_format": {
            "s": "TkhXQw=="
          },
          "use_cudnn_on_gpu": {
            "b": true
          },
          "explicit_paddings": {
            "list": {}
          },
          "num_args": {
            "i": "1"
          }
        }
      },
      {
        "name": "StatefulPartitionedCall/deeplabv3p/expanded_conv_4_expand_relu/Relu6",
        "op": "_FusedConv2D",
        "input": [
          "StatefulPartitionedCall/deeplabv3p/expanded_conv_3_project_BN/FusedBatchNormV3",
          "StatefulPartitionedCall/deeplabv3p/expanded_conv_4_expand/Conv2D_weights",
          "StatefulPartitionedCall/deeplabv3p/expanded_conv_4_expand/Conv2D_bn_offset"
        ],
        "device": "/device:CPU:0",
        "attr": {
          "strides": {
            "list": {
              "i": [
                "1",
                "1",
                "1",
                "1"
              ]
            }
          },
          "data_format": {
            "s": "TkhXQw=="
          },
          "use_cudnn_on_gpu": {
            "b": true
          },
          "explicit_paddings": {
            "list": {}
          },
          "num_args": {
            "i": "1"
          },
          "epsilon": {
            "f": 0.0
          },
          "padding": {
            "s": "U0FNRQ=="
          },
          "fused_ops": {
            "list": {
              "s": [
                "Qmlhc0FkZA==",
                "UmVsdTY="
              ]
            }
          },
          "dilations": {
            "list": {
              "i": [
                "1",
                "1",
                "1",
                "1"
              ]
            }
          },
          "T": {
            "type": "DT_FLOAT"
          }
        }
      },
      {
        "name": "StatefulPartitionedCall/deeplabv3p/expanded_conv_4_depthwise/depthwise",
        "op": "FusedDepthwiseConv2dNative",
        "input": [
          "StatefulPartitionedCall/deeplabv3p/expanded_conv_4_expand_relu/Relu6",
          "StatefulPartitionedCall/deeplabv3p/expanded_conv_4_depthwise/depthwise_weights",
          "StatefulPartitionedCall/deeplabv3p/expanded_conv_4_depthwise/depthwise_bn_offset"
        ],
        "attr": {
          "padding": {
            "s": "U0FNRQ=="
          },
          "fused_ops": {
            "list": {
              "s": [
                "Qmlhc0FkZA==",
                "UmVsdTY="
              ]
            }
          },
          "dilations": {
            "list": {
              "i": [
                "1",
                "1",
                "1",
                "1"
              ]
            }
          },
          "T": {
            "type": "DT_FLOAT"
          },
          "strides": {
            "list": {
              "i": [
                "1",
                "1",
                "1",
                "1"
              ]
            }
          },
          "data_format": {
            "s": "TkhXQw=="
          },
          "explicit_paddings": {
            "list": {}
          },
          "num_args": {
            "i": "1"
          }
        }
      },
      {
        "name": "StatefulPartitionedCall/deeplabv3p/expanded_conv_4_project_BN/FusedBatchNormV3",
        "op": "_FusedConv2D",
        "input": [
          "StatefulPartitionedCall/deeplabv3p/expanded_conv_4_depthwise/depthwise",
          "StatefulPartitionedCall/deeplabv3p/expanded_conv_4_project/Conv2D_weights",
          "StatefulPartitionedCall/deeplabv3p/expanded_conv_4_project/Conv2D_bn_offset"
        ],
        "device": "/device:CPU:0",
        "attr": {
          "fused_ops": {
            "list": {
              "s": [
                "Qmlhc0FkZA=="
              ]
            }
          },
          "dilations": {
            "list": {
              "i": [
                "1",
                "1",
                "1",
                "1"
              ]
            }
          },
          "T": {
            "type": "DT_FLOAT"
          },
          "strides": {
            "list": {
              "i": [
                "1",
                "1",
                "1",
                "1"
              ]
            }
          },
          "data_format": {
            "s": "TkhXQw=="
          },
          "use_cudnn_on_gpu": {
            "b": true
          },
          "explicit_paddings": {
            "list": {}
          },
          "num_args": {
            "i": "1"
          },
          "epsilon": {
            "f": 0.0
          },
          "padding": {
            "s": "U0FNRQ=="
          }
        }
      },
      {
        "name": "StatefulPartitionedCall/deeplabv3p/expanded_conv_4_add/add",
        "op": "AddV2",
        "input": [
          "StatefulPartitionedCall/deeplabv3p/expanded_conv_3_project_BN/FusedBatchNormV3",
          "StatefulPartitionedCall/deeplabv3p/expanded_conv_4_project_BN/FusedBatchNormV3"
        ],
        "attr": {
          "T": {
            "type": "DT_FLOAT"
          }
        }
      },
      {
        "name": "StatefulPartitionedCall/deeplabv3p/expanded_conv_5_expand_relu/Relu6",
        "op": "_FusedConv2D",
        "input": [
          "StatefulPartitionedCall/deeplabv3p/expanded_conv_4_add/add",
          "StatefulPartitionedCall/deeplabv3p/expanded_conv_5_expand/Conv2D_weights",
          "StatefulPartitionedCall/deeplabv3p/expanded_conv_5_expand/Conv2D_bn_offset"
        ],
        "device": "/device:CPU:0",
        "attr": {
          "dilations": {
            "list": {
              "i": [
                "1",
                "1",
                "1",
                "1"
              ]
            }
          },
          "T": {
            "type": "DT_FLOAT"
          },
          "data_format": {
            "s": "TkhXQw=="
          },
          "strides": {
            "list": {
              "i": [
                "1",
                "1",
                "1",
                "1"
              ]
            }
          },
          "explicit_paddings": {
            "list": {}
          },
          "use_cudnn_on_gpu": {
            "b": true
          },
          "num_args": {
            "i": "1"
          },
          "epsilon": {
            "f": 0.0
          },
          "padding": {
            "s": "U0FNRQ=="
          },
          "fused_ops": {
            "list": {
              "s": [
                "Qmlhc0FkZA==",
                "UmVsdTY="
              ]
            }
          }
        }
      },
      {
        "name": "StatefulPartitionedCall/deeplabv3p/expanded_conv_5_depthwise/depthwise",
        "op": "FusedDepthwiseConv2dNative",
        "input": [
          "StatefulPartitionedCall/deeplabv3p/expanded_conv_5_expand_relu/Relu6",
          "StatefulPartitionedCall/deeplabv3p/expanded_conv_5_depthwise/depthwise_weights",
          "StatefulPartitionedCall/deeplabv3p/expanded_conv_5_depthwise/depthwise_bn_offset"
        ],
        "attr": {
          "num_args": {
            "i": "1"
          },
          "padding": {
            "s": "U0FNRQ=="
          },
          "fused_ops": {
            "list": {
              "s": [
                "Qmlhc0FkZA==",
                "UmVsdTY="
              ]
            }
          },
          "dilations": {
            "list": {
              "i": [
                "1",
                "1",
                "1",
                "1"
              ]
            }
          },
          "T": {
            "type": "DT_FLOAT"
          },
          "data_format": {
            "s": "TkhXQw=="
          },
          "strides": {
            "list": {
              "i": [
                "1",
                "1",
                "1",
                "1"
              ]
            }
          },
          "explicit_paddings": {
            "list": {}
          }
        }
      },
      {
        "name": "StatefulPartitionedCall/deeplabv3p/expanded_conv_5_project_BN/FusedBatchNormV3",
        "op": "_FusedConv2D",
        "input": [
          "StatefulPartitionedCall/deeplabv3p/expanded_conv_5_depthwise/depthwise",
          "StatefulPartitionedCall/deeplabv3p/expanded_conv_5_project/Conv2D_weights",
          "StatefulPartitionedCall/deeplabv3p/expanded_conv_5_project/Conv2D_bn_offset"
        ],
        "device": "/device:CPU:0",
        "attr": {
          "dilations": {
            "list": {
              "i": [
                "1",
                "1",
                "1",
                "1"
              ]
            }
          },
          "T": {
            "type": "DT_FLOAT"
          },
          "data_format": {
            "s": "TkhXQw=="
          },
          "strides": {
            "list": {
              "i": [
                "1",
                "1",
                "1",
                "1"
              ]
            }
          },
          "explicit_paddings": {
            "list": {}
          },
          "use_cudnn_on_gpu": {
            "b": true
          },
          "num_args": {
            "i": "1"
          },
          "epsilon": {
            "f": 0.0
          },
          "padding": {
            "s": "U0FNRQ=="
          },
          "fused_ops": {
            "list": {
              "s": [
                "Qmlhc0FkZA=="
              ]
            }
          }
        }
      },
      {
        "name": "StatefulPartitionedCall/deeplabv3p/expanded_conv_5_add/add",
        "op": "AddV2",
        "input": [
          "StatefulPartitionedCall/deeplabv3p/expanded_conv_4_add/add",
          "StatefulPartitionedCall/deeplabv3p/expanded_conv_5_project_BN/FusedBatchNormV3"
        ],
        "attr": {
          "T": {
            "type": "DT_FLOAT"
          }
        }
      },
      {
        "name": "StatefulPartitionedCall/deeplabv3p/expanded_conv_6_expand_relu/Relu6",
        "op": "_FusedConv2D",
        "input": [
          "StatefulPartitionedCall/deeplabv3p/expanded_conv_5_add/add",
          "StatefulPartitionedCall/deeplabv3p/expanded_conv_6_expand/Conv2D_weights",
          "StatefulPartitionedCall/deeplabv3p/expanded_conv_6_expand/Conv2D_bn_offset"
        ],
        "device": "/device:CPU:0",
        "attr": {
          "epsilon": {
            "f": 0.0
          },
          "padding": {
            "s": "U0FNRQ=="
          },
          "fused_ops": {
            "list": {
              "s": [
                "Qmlhc0FkZA==",
                "UmVsdTY="
              ]
            }
          },
          "dilations": {
            "list": {
              "i": [
                "1",
                "1",
                "1",
                "1"
              ]
            }
          },
          "T": {
            "type": "DT_FLOAT"
          },
          "data_format": {
            "s": "TkhXQw=="
          },
          "strides": {
            "list": {
              "i": [
                "1",
                "1",
                "1",
                "1"
              ]
            }
          },
          "explicit_paddings": {
            "list": {}
          },
          "use_cudnn_on_gpu": {
            "b": true
          },
          "num_args": {
            "i": "1"
          }
        }
      },
      {
        "name": "StatefulPartitionedCall/deeplabv3p/expanded_conv_6_depthwise/depthwise",
        "op": "FusedDepthwiseConv2dNative",
        "input": [
          "StatefulPartitionedCall/deeplabv3p/expanded_conv_6_expand_relu/Relu6",
          "StatefulPartitionedCall/deeplabv3p/expanded_conv_6_depthwise/depthwise_weights",
          "StatefulPartitionedCall/deeplabv3p/expanded_conv_6_depthwise/depthwise_bn_offset"
        ],
        "attr": {
          "dilations": {
            "list": {
              "i": [
                "1",
                "1",
                "1",
                "1"
              ]
            }
          },
          "T": {
            "type": "DT_FLOAT"
          },
          "data_format": {
            "s": "TkhXQw=="
          },
          "strides": {
            "list": {
              "i": [
                "1",
                "1",
                "1",
                "1"
              ]
            }
          },
          "explicit_paddings": {
            "list": {}
          },
          "num_args": {
            "i": "1"
          },
          "padding": {
            "s": "U0FNRQ=="
          },
          "fused_ops": {
            "list": {
              "s": [
                "Qmlhc0FkZA==",
                "UmVsdTY="
              ]
            }
          }
        }
      },
      {
        "name": "StatefulPartitionedCall/deeplabv3p/expanded_conv_6_project_BN/FusedBatchNormV3",
        "op": "_FusedConv2D",
        "input": [
          "StatefulPartitionedCall/deeplabv3p/expanded_conv_6_depthwise/depthwise",
          "StatefulPartitionedCall/deeplabv3p/expanded_conv_6_project/Conv2D_weights",
          "StatefulPartitionedCall/deeplabv3p/expanded_conv_6_project/Conv2D_bn_offset"
        ],
        "device": "/device:CPU:0",
        "attr": {
          "num_args": {
            "i": "1"
          },
          "epsilon": {
            "f": 0.0
          },
          "padding": {
            "s": "U0FNRQ=="
          },
          "fused_ops": {
            "list": {
              "s": [
                "Qmlhc0FkZA=="
              ]
            }
          },
          "dilations": {
            "list": {
              "i": [
                "1",
                "1",
                "1",
                "1"
              ]
            }
          },
          "T": {
            "type": "DT_FLOAT"
          },
          "strides": {
            "list": {
              "i": [
                "1",
                "1",
                "1",
                "1"
              ]
            }
          },
          "data_format": {
            "s": "TkhXQw=="
          },
          "explicit_paddings": {
            "list": {}
          },
          "use_cudnn_on_gpu": {
            "b": true
          }
        }
      },
      {
        "name": "StatefulPartitionedCall/deeplabv3p/expanded_conv_7_expand_relu/Relu6",
        "op": "_FusedConv2D",
        "input": [
          "StatefulPartitionedCall/deeplabv3p/expanded_conv_6_project_BN/FusedBatchNormV3",
          "StatefulPartitionedCall/deeplabv3p/expanded_conv_7_expand/Conv2D_weights",
          "StatefulPartitionedCall/deeplabv3p/expanded_conv_7_expand/Conv2D_bn_offset"
        ],
        "device": "/device:CPU:0",
        "attr": {
          "T": {
            "type": "DT_FLOAT"
          },
          "strides": {
            "list": {
              "i": [
                "1",
                "1",
                "1",
                "1"
              ]
            }
          },
          "data_format": {
            "s": "TkhXQw=="
          },
          "use_cudnn_on_gpu": {
            "b": true
          },
          "explicit_paddings": {
            "list": {}
          },
          "num_args": {
            "i": "1"
          },
          "epsilon": {
            "f": 0.0
          },
          "padding": {
            "s": "U0FNRQ=="
          },
          "fused_ops": {
            "list": {
              "s": [
                "Qmlhc0FkZA==",
                "UmVsdTY="
              ]
            }
          },
          "dilations": {
            "list": {
              "i": [
                "1",
                "1",
                "1",
                "1"
              ]
            }
          }
        }
      },
      {
        "name": "StatefulPartitionedCall/deeplabv3p/expanded_conv_7_depthwise/depthwise/SpaceToBatchND",
        "op": "SpaceToBatchND",
        "input": [
          "StatefulPartitionedCall/deeplabv3p/expanded_conv_7_expand_relu/Relu6",
          "StatefulPartitionedCall/deeplabv3p/expanded_conv_7_depthwise/depthwise/SpaceToBatchND/block_shape",
          "StatefulPartitionedCall/deeplabv3p/expanded_conv_7_depthwise/depthwise/SpaceToBatchND/paddings"
        ],
        "attr": {
          "T": {
            "type": "DT_FLOAT"
          },
          "Tpaddings": {
            "type": "DT_INT32"
          },
          "Tblock_shape": {
            "type": "DT_INT32"
          }
        }
      },
      {
        "name": "StatefulPartitionedCall/deeplabv3p/expanded_conv_7_depthwise/depthwise",
        "op": "DepthwiseConv2dNative",
        "input": [
          "StatefulPartitionedCall/deeplabv3p/expanded_conv_7_depthwise/depthwise/SpaceToBatchND",
          "unknown_109"
        ],
        "attr": {
          "dilations": {
            "list": {
              "i": [
                "1",
                "1",
                "1",
                "1"
              ]
            }
          },
          "T": {
            "type": "DT_FLOAT"
          },
          "strides": {
            "list": {
              "i": [
                "1",
                "1",
                "1",
                "1"
              ]
            }
          },
          "data_format": {
            "s": "TkhXQw=="
          },
          "explicit_paddings": {
            "list": {}
          },
          "padding": {
            "s": "VkFMSUQ="
          }
        }
      },
      {
        "name": "StatefulPartitionedCall/deeplabv3p/expanded_conv_7_depthwise/depthwise/BatchToSpaceND",
        "op": "BatchToSpaceND",
        "input": [
          "StatefulPartitionedCall/deeplabv3p/expanded_conv_7_depthwise/depthwise",
          "StatefulPartitionedCall/deeplabv3p/expanded_conv_7_depthwise/depthwise/BatchToSpaceND/block_shape",
          "StatefulPartitionedCall/deeplabv3p/expanded_conv_7_depthwise/depthwise/BatchToSpaceND/crops"
        ],
        "attr": {
          "Tcrops": {
            "type": "DT_INT32"
          },
          "T": {
            "type": "DT_FLOAT"
          },
          "Tblock_shape": {
            "type": "DT_INT32"
          }
        }
      },
      {
        "name": "StatefulPartitionedCall/deeplabv3p/expanded_conv_7_depthwise_BN/FusedBatchNormV3/Mul",
        "op": "Mul",
        "input": [
          "StatefulPartitionedCall/deeplabv3p/expanded_conv_7_depthwise/depthwise/BatchToSpaceND",
          "StatefulPartitionedCall/deeplabv3p/expanded_conv_7_depthwise_BN/FusedBatchNormV3/Scaled"
        ],
        "attr": {
          "T": {
            "type": "DT_FLOAT"
          }
        }
      },
      {
        "name": "StatefulPartitionedCall/deeplabv3p/expanded_conv_7_depthwise_BN/FusedBatchNormV3",
        "op": "Add",
        "input": [
          "StatefulPartitionedCall/deeplabv3p/expanded_conv_7_depthwise_BN/FusedBatchNormV3/Mul",
          "StatefulPartitionedCall/deeplabv3p/expanded_conv_7_depthwise_BN/FusedBatchNormV3/Offset"
        ],
        "attr": {
          "T": {
            "type": "DT_FLOAT"
          }
        }
      },
      {
        "name": "StatefulPartitionedCall/deeplabv3p/expanded_conv_7_depthwise_relu/Relu6",
        "op": "Relu6",
        "input": [
          "StatefulPartitionedCall/deeplabv3p/expanded_conv_7_depthwise_BN/FusedBatchNormV3"
        ],
        "attr": {
          "T": {
            "type": "DT_FLOAT"
          }
        }
      },
      {
        "name": "StatefulPartitionedCall/deeplabv3p/expanded_conv_7_project_BN/FusedBatchNormV3",
        "op": "_FusedConv2D",
        "input": [
          "StatefulPartitionedCall/deeplabv3p/expanded_conv_7_depthwise_relu/Relu6",
          "StatefulPartitionedCall/deeplabv3p/expanded_conv_7_project/Conv2D_weights",
          "StatefulPartitionedCall/deeplabv3p/expanded_conv_7_project/Conv2D_bn_offset"
        ],
        "device": "/device:CPU:0",
        "attr": {
          "fused_ops": {
            "list": {
              "s": [
                "Qmlhc0FkZA=="
              ]
            }
          },
          "dilations": {
            "list": {
              "i": [
                "1",
                "1",
                "1",
                "1"
              ]
            }
          },
          "T": {
            "type": "DT_FLOAT"
          },
          "strides": {
            "list": {
              "i": [
                "1",
                "1",
                "1",
                "1"
              ]
            }
          },
          "data_format": {
            "s": "TkhXQw=="
          },
          "explicit_paddings": {
            "list": {}
          },
          "use_cudnn_on_gpu": {
            "b": true
          },
          "num_args": {
            "i": "1"
          },
          "epsilon": {
            "f": 0.0
          },
          "padding": {
            "s": "U0FNRQ=="
          }
        }
      },
      {
        "name": "StatefulPartitionedCall/deeplabv3p/expanded_conv_7_add/add",
        "op": "AddV2",
        "input": [
          "StatefulPartitionedCall/deeplabv3p/expanded_conv_6_project_BN/FusedBatchNormV3",
          "StatefulPartitionedCall/deeplabv3p/expanded_conv_7_project_BN/FusedBatchNormV3"
        ],
        "attr": {
          "T": {
            "type": "DT_FLOAT"
          }
        }
      },
      {
        "name": "StatefulPartitionedCall/deeplabv3p/expanded_conv_8_expand_relu/Relu6",
        "op": "_FusedConv2D",
        "input": [
          "StatefulPartitionedCall/deeplabv3p/expanded_conv_7_add/add",
          "StatefulPartitionedCall/deeplabv3p/expanded_conv_8_expand/Conv2D_weights",
          "StatefulPartitionedCall/deeplabv3p/expanded_conv_8_expand/Conv2D_bn_offset"
        ],
        "device": "/device:CPU:0",
        "attr": {
          "dilations": {
            "list": {
              "i": [
                "1",
                "1",
                "1",
                "1"
              ]
            }
          },
          "T": {
            "type": "DT_FLOAT"
          },
          "data_format": {
            "s": "TkhXQw=="
          },
          "strides": {
            "list": {
              "i": [
                "1",
                "1",
                "1",
                "1"
              ]
            }
          },
          "use_cudnn_on_gpu": {
            "b": true
          },
          "explicit_paddings": {
            "list": {}
          },
          "num_args": {
            "i": "1"
          },
          "epsilon": {
            "f": 0.0
          },
          "padding": {
            "s": "U0FNRQ=="
          },
          "fused_ops": {
            "list": {
              "s": [
                "Qmlhc0FkZA==",
                "UmVsdTY="
              ]
            }
          }
        }
      },
      {
        "name": "StatefulPartitionedCall/deeplabv3p/expanded_conv_8_depthwise/depthwise/SpaceToBatchND",
        "op": "SpaceToBatchND",
        "input": [
          "StatefulPartitionedCall/deeplabv3p/expanded_conv_8_expand_relu/Relu6",
          "StatefulPartitionedCall/deeplabv3p/expanded_conv_8_depthwise/depthwise/SpaceToBatchND/block_shape",
          "StatefulPartitionedCall/deeplabv3p/expanded_conv_8_depthwise/depthwise/SpaceToBatchND/paddings"
        ],
        "attr": {
          "T": {
            "type": "DT_FLOAT"
          },
          "Tpaddings": {
            "type": "DT_INT32"
          },
          "Tblock_shape": {
            "type": "DT_INT32"
          }
        }
      },
      {
        "name": "StatefulPartitionedCall/deeplabv3p/expanded_conv_8_depthwise/depthwise",
        "op": "DepthwiseConv2dNative",
        "input": [
          "StatefulPartitionedCall/deeplabv3p/expanded_conv_8_depthwise/depthwise/SpaceToBatchND",
          "unknown_124"
        ],
        "attr": {
          "padding": {
            "s": "VkFMSUQ="
          },
          "dilations": {
            "list": {
              "i": [
                "1",
                "1",
                "1",
                "1"
              ]
            }
          },
          "T": {
            "type": "DT_FLOAT"
          },
          "strides": {
            "list": {
              "i": [
                "1",
                "1",
                "1",
                "1"
              ]
            }
          },
          "data_format": {
            "s": "TkhXQw=="
          },
          "explicit_paddings": {
            "list": {}
          }
        }
      },
      {
        "name": "StatefulPartitionedCall/deeplabv3p/expanded_conv_8_depthwise/depthwise/BatchToSpaceND",
        "op": "BatchToSpaceND",
        "input": [
          "StatefulPartitionedCall/deeplabv3p/expanded_conv_8_depthwise/depthwise",
          "StatefulPartitionedCall/deeplabv3p/expanded_conv_8_depthwise/depthwise/BatchToSpaceND/block_shape",
          "StatefulPartitionedCall/deeplabv3p/expanded_conv_8_depthwise/depthwise/BatchToSpaceND/crops"
        ],
        "attr": {
          "Tcrops": {
            "type": "DT_INT32"
          },
          "T": {
            "type": "DT_FLOAT"
          },
          "Tblock_shape": {
            "type": "DT_INT32"
          }
        }
      },
      {
        "name": "StatefulPartitionedCall/deeplabv3p/expanded_conv_8_depthwise_BN/FusedBatchNormV3/Mul",
        "op": "Mul",
        "input": [
          "StatefulPartitionedCall/deeplabv3p/expanded_conv_8_depthwise/depthwise/BatchToSpaceND",
          "StatefulPartitionedCall/deeplabv3p/expanded_conv_8_depthwise_BN/FusedBatchNormV3/Scaled"
        ],
        "attr": {
          "T": {
            "type": "DT_FLOAT"
          }
        }
      },
      {
        "name": "StatefulPartitionedCall/deeplabv3p/expanded_conv_8_depthwise_BN/FusedBatchNormV3",
        "op": "Add",
        "input": [
          "StatefulPartitionedCall/deeplabv3p/expanded_conv_8_depthwise_BN/FusedBatchNormV3/Mul",
          "StatefulPartitionedCall/deeplabv3p/expanded_conv_8_depthwise_BN/FusedBatchNormV3/Offset"
        ],
        "attr": {
          "T": {
            "type": "DT_FLOAT"
          }
        }
      },
      {
        "name": "StatefulPartitionedCall/deeplabv3p/expanded_conv_8_depthwise_relu/Relu6",
        "op": "Relu6",
        "input": [
          "StatefulPartitionedCall/deeplabv3p/expanded_conv_8_depthwise_BN/FusedBatchNormV3"
        ],
        "attr": {
          "T": {
            "type": "DT_FLOAT"
          }
        }
      },
      {
        "name": "StatefulPartitionedCall/deeplabv3p/expanded_conv_8_project_BN/FusedBatchNormV3",
        "op": "_FusedConv2D",
        "input": [
          "StatefulPartitionedCall/deeplabv3p/expanded_conv_8_depthwise_relu/Relu6",
          "StatefulPartitionedCall/deeplabv3p/expanded_conv_8_project/Conv2D_weights",
          "StatefulPartitionedCall/deeplabv3p/expanded_conv_8_project/Conv2D_bn_offset"
        ],
        "device": "/device:CPU:0",
        "attr": {
          "num_args": {
            "i": "1"
          },
          "epsilon": {
            "f": 0.0
          },
          "padding": {
            "s": "U0FNRQ=="
          },
          "fused_ops": {
            "list": {
              "s": [
                "Qmlhc0FkZA=="
              ]
            }
          },
          "dilations": {
            "list": {
              "i": [
                "1",
                "1",
                "1",
                "1"
              ]
            }
          },
          "T": {
            "type": "DT_FLOAT"
          },
          "data_format": {
            "s": "TkhXQw=="
          },
          "strides": {
            "list": {
              "i": [
                "1",
                "1",
                "1",
                "1"
              ]
            }
          },
          "explicit_paddings": {
            "list": {}
          },
          "use_cudnn_on_gpu": {
            "b": true
          }
        }
      },
      {
        "name": "StatefulPartitionedCall/deeplabv3p/expanded_conv_8_add/add",
        "op": "AddV2",
        "input": [
          "StatefulPartitionedCall/deeplabv3p/expanded_conv_7_add/add",
          "StatefulPartitionedCall/deeplabv3p/expanded_conv_8_project_BN/FusedBatchNormV3"
        ],
        "attr": {
          "T": {
            "type": "DT_FLOAT"
          }
        }
      },
      {
        "name": "StatefulPartitionedCall/deeplabv3p/expanded_conv_9_expand_relu/Relu6",
        "op": "_FusedConv2D",
        "input": [
          "StatefulPartitionedCall/deeplabv3p/expanded_conv_8_add/add",
          "StatefulPartitionedCall/deeplabv3p/expanded_conv_9_expand/Conv2D_weights",
          "StatefulPartitionedCall/deeplabv3p/expanded_conv_9_expand/Conv2D_bn_offset"
        ],
        "device": "/device:CPU:0",
        "attr": {
          "epsilon": {
            "f": 0.0
          },
          "padding": {
            "s": "U0FNRQ=="
          },
          "fused_ops": {
            "list": {
              "s": [
                "Qmlhc0FkZA==",
                "UmVsdTY="
              ]
            }
          },
          "dilations": {
            "list": {
              "i": [
                "1",
                "1",
                "1",
                "1"
              ]
            }
          },
          "T": {
            "type": "DT_FLOAT"
          },
          "strides": {
            "list": {
              "i": [
                "1",
                "1",
                "1",
                "1"
              ]
            }
          },
          "data_format": {
            "s": "TkhXQw=="
          },
          "use_cudnn_on_gpu": {
            "b": true
          },
          "explicit_paddings": {
            "list": {}
          },
          "num_args": {
            "i": "1"
          }
        }
      },
      {
        "name": "StatefulPartitionedCall/deeplabv3p/expanded_conv_9_depthwise/depthwise/SpaceToBatchND",
        "op": "SpaceToBatchND",
        "input": [
          "StatefulPartitionedCall/deeplabv3p/expanded_conv_9_expand_relu/Relu6",
          "StatefulPartitionedCall/deeplabv3p/expanded_conv_9_depthwise/depthwise/SpaceToBatchND/block_shape",
          "StatefulPartitionedCall/deeplabv3p/expanded_conv_9_depthwise/depthwise/SpaceToBatchND/paddings"
        ],
        "attr": {
          "Tpaddings": {
            "type": "DT_INT32"
          },
          "Tblock_shape": {
            "type": "DT_INT32"
          },
          "T": {
            "type": "DT_FLOAT"
          }
        }
      },
      {
        "name": "StatefulPartitionedCall/deeplabv3p/expanded_conv_9_depthwise/depthwise",
        "op": "DepthwiseConv2dNative",
        "input": [
          "StatefulPartitionedCall/deeplabv3p/expanded_conv_9_depthwise/depthwise/SpaceToBatchND",
          "unknown_139"
        ],
        "attr": {
          "dilations": {
            "list": {
              "i": [
                "1",
                "1",
                "1",
                "1"
              ]
            }
          },
          "T": {
            "type": "DT_FLOAT"
          },
          "data_format": {
            "s": "TkhXQw=="
          },
          "strides": {
            "list": {
              "i": [
                "1",
                "1",
                "1",
                "1"
              ]
            }
          },
          "explicit_paddings": {
            "list": {}
          },
          "padding": {
            "s": "VkFMSUQ="
          }
        }
      },
      {
        "name": "StatefulPartitionedCall/deeplabv3p/expanded_conv_9_depthwise/depthwise/BatchToSpaceND",
        "op": "BatchToSpaceND",
        "input": [
          "StatefulPartitionedCall/deeplabv3p/expanded_conv_9_depthwise/depthwise",
          "StatefulPartitionedCall/deeplabv3p/expanded_conv_9_depthwise/depthwise/BatchToSpaceND/block_shape",
          "StatefulPartitionedCall/deeplabv3p/expanded_conv_9_depthwise/depthwise/BatchToSpaceND/crops"
        ],
        "attr": {
          "Tcrops": {
            "type": "DT_INT32"
          },
          "T": {
            "type": "DT_FLOAT"
          },
          "Tblock_shape": {
            "type": "DT_INT32"
          }
        }
      },
      {
        "name": "StatefulPartitionedCall/deeplabv3p/expanded_conv_9_depthwise_BN/FusedBatchNormV3/Mul",
        "op": "Mul",
        "input": [
          "StatefulPartitionedCall/deeplabv3p/expanded_conv_9_depthwise/depthwise/BatchToSpaceND",
          "StatefulPartitionedCall/deeplabv3p/expanded_conv_9_depthwise_BN/FusedBatchNormV3/Scaled"
        ],
        "attr": {
          "T": {
            "type": "DT_FLOAT"
          }
        }
      },
      {
        "name": "StatefulPartitionedCall/deeplabv3p/expanded_conv_9_depthwise_BN/FusedBatchNormV3",
        "op": "Add",
        "input": [
          "StatefulPartitionedCall/deeplabv3p/expanded_conv_9_depthwise_BN/FusedBatchNormV3/Mul",
          "StatefulPartitionedCall/deeplabv3p/expanded_conv_9_depthwise_BN/FusedBatchNormV3/Offset"
        ],
        "attr": {
          "T": {
            "type": "DT_FLOAT"
          }
        }
      },
      {
        "name": "StatefulPartitionedCall/deeplabv3p/expanded_conv_9_depthwise_relu/Relu6",
        "op": "Relu6",
        "input": [
          "StatefulPartitionedCall/deeplabv3p/expanded_conv_9_depthwise_BN/FusedBatchNormV3"
        ],
        "attr": {
          "T": {
            "type": "DT_FLOAT"
          }
        }
      },
      {
        "name": "StatefulPartitionedCall/deeplabv3p/expanded_conv_9_project_BN/FusedBatchNormV3",
        "op": "_FusedConv2D",
        "input": [
          "StatefulPartitionedCall/deeplabv3p/expanded_conv_9_depthwise_relu/Relu6",
          "StatefulPartitionedCall/deeplabv3p/expanded_conv_9_project/Conv2D_weights",
          "StatefulPartitionedCall/deeplabv3p/expanded_conv_9_project/Conv2D_bn_offset"
        ],
        "device": "/device:CPU:0",
        "attr": {
          "dilations": {
            "list": {
              "i": [
                "1",
                "1",
                "1",
                "1"
              ]
            }
          },
          "T": {
            "type": "DT_FLOAT"
          },
          "strides": {
            "list": {
              "i": [
                "1",
                "1",
                "1",
                "1"
              ]
            }
          },
          "data_format": {
            "s": "TkhXQw=="
          },
          "use_cudnn_on_gpu": {
            "b": true
          },
          "explicit_paddings": {
            "list": {}
          },
          "num_args": {
            "i": "1"
          },
          "epsilon": {
            "f": 0.0
          },
          "padding": {
            "s": "U0FNRQ=="
          },
          "fused_ops": {
            "list": {
              "s": [
                "Qmlhc0FkZA=="
              ]
            }
          }
        }
      },
      {
        "name": "StatefulPartitionedCall/deeplabv3p/expanded_conv_9_add/add",
        "op": "AddV2",
        "input": [
          "StatefulPartitionedCall/deeplabv3p/expanded_conv_8_add/add",
          "StatefulPartitionedCall/deeplabv3p/expanded_conv_9_project_BN/FusedBatchNormV3"
        ],
        "attr": {
          "T": {
            "type": "DT_FLOAT"
          }
        }
      },
      {
        "name": "StatefulPartitionedCall/deeplabv3p/expanded_conv_10_expand_relu/Relu6",
…
          "use_cudnn_on_gpu": {
            "b": true
          },
          "num_args": {
            "i": "1"
          },
          "epsilon": {
            "f": 0.0
          },
          "padding": {
            "s": "U0FNRQ=="
          },
          "fused_ops": {
            "list": {
              "s": [
                "Qmlhc0FkZA==",
                "UmVsdTY="
              ]
            }
          },
          "dilations": {
            "list": {
              "i": [
                "1",
                "1",
                "1",
                "1"
              ]
            }
          }
        }
      },
      {
        "name": "StatefulPartitionedCall/deeplabv3p/expanded_conv_16_depthwise/depthwise/SpaceToBatchND",
        "op": "SpaceToBatchND",
        "input": [
          "StatefulPartitionedCall/deeplabv3p/expanded_conv_16_expand_relu/Relu6",
          "StatefulPartitionedCall/deeplabv3p/expanded_conv_16_depthwise/depthwise/SpaceToBatchND/block_shape",
          "StatefulPartitionedCall/deeplabv3p/expanded_conv_16_depthwise/depthwise/SpaceToBatchND/paddings"
        ],
        "attr": {
          "T": {
            "type": "DT_FLOAT"
          },
          "Tpaddings": {
            "type": "DT_INT32"
          },
          "Tblock_shape": {
            "type": "DT_INT32"
          }
        }
      },
      {
        "name": "StatefulPartitionedCall/deeplabv3p/expanded_conv_16_depthwise/depthwise",
        "op": "DepthwiseConv2dNative",
        "input": [
          "StatefulPartitionedCall/deeplabv3p/expanded_conv_16_depthwise/depthwise/SpaceToBatchND",
          "unknown_244"
        ],
        "attr": {
          "dilations": {
            "list": {
              "i": [
                "1",
                "1",
                "1",
                "1"
              ]
            }
          },
          "T": {
            "type": "DT_FLOAT"
          },
          "data_format": {
            "s": "TkhXQw=="
          },
          "strides": {
            "list": {
              "i": [
                "1",
                "1",
                "1",
                "1"
              ]
            }
          },
          "explicit_paddings": {
            "list": {}
          },
          "padding": {
            "s": "VkFMSUQ="
          }
        }
      },
      {
        "name": "StatefulPartitionedCall/deeplabv3p/expanded_conv_16_depthwise/depthwise/BatchToSpaceND",
        "op": "BatchToSpaceND",
        "input": [
          "StatefulPartitionedCall/deeplabv3p/expanded_conv_16_depthwise/depthwise",
          "StatefulPartitionedCall/deeplabv3p/expanded_conv_16_depthwise/depthwise/BatchToSpaceND/block_shape",
          "StatefulPartitionedCall/deeplabv3p/expanded_conv_16_depthwise/depthwise/BatchToSpaceND/crops"
        ],
        "attr": {
          "Tcrops": {
            "type": "DT_INT32"
          },
          "T": {
            "type": "DT_FLOAT"
          },
          "Tblock_shape": {
            "type": "DT_INT32"
          }
        }
      },
      {
        "name": "StatefulPartitionedCall/deeplabv3p/expanded_conv_16_depthwise_BN/FusedBatchNormV3/Mul",
        "op": "Mul",
        "input": [
          "StatefulPartitionedCall/deeplabv3p/expanded_conv_16_depthwise/depthwise/BatchToSpaceND",
          "StatefulPartitionedCall/deeplabv3p/expanded_conv_16_depthwise_BN/FusedBatchNormV3/Scaled"
        ],
        "attr": {
          "T": {
            "type": "DT_FLOAT"
          }
        }
      },
      {
        "name": "StatefulPartitionedCall/deeplabv3p/expanded_conv_16_depthwise_BN/FusedBatchNormV3",
        "op": "Add",
        "input": [
          "StatefulPartitionedCall/deeplabv3p/expanded_conv_16_depthwise_BN/FusedBatchNormV3/Mul",
          "StatefulPartitionedCall/deeplabv3p/expanded_conv_16_depthwise_BN/FusedBatchNormV3/Offset"
        ],
        "attr": {
          "T": {
            "type": "DT_FLOAT"
          }
        }
      },
      {
        "name": "StatefulPartitionedCall/deeplabv3p/expanded_conv_16_depthwise_relu/Relu6",
        "op": "Relu6",
        "input": [
          "StatefulPartitionedCall/deeplabv3p/expanded_conv_16_depthwise_BN/FusedBatchNormV3"
        ],
        "attr": {
          "T": {
            "type": "DT_FLOAT"
          }
        }
      },
      {
        "name": "StatefulPartitionedCall/deeplabv3p/expanded_conv_16_project_BN/FusedBatchNormV3",
        "op": "_FusedConv2D",
        "input": [
          "StatefulPartitionedCall/deeplabv3p/expanded_conv_16_depthwise_relu/Relu6",
          "StatefulPartitionedCall/deeplabv3p/expanded_conv_16_project/Conv2D_weights",
          "StatefulPartitionedCall/deeplabv3p/expanded_conv_16_project/Conv2D_bn_offset"
        ],
        "device": "/device:CPU:0",
        "attr": {
          "strides": {
            "list": {
              "i": [
                "1",
                "1",
                "1",
                "1"
              ]
            }
          },
          "data_format": {
            "s": "TkhXQw=="
          },
          "explicit_paddings": {
            "list": {}
          },
          "use_cudnn_on_gpu": {
            "b": true
          },
          "num_args": {
            "i": "1"
          },
          "epsilon": {
            "f": 0.0
          },
          "padding": {
            "s": "U0FNRQ=="
          },
          "fused_ops": {
            "list": {
              "s": [
                "Qmlhc0FkZA=="
              ]
            }
          },
          "dilations": {
            "list": {
              "i": [
                "1",
                "1",
                "1",
                "1"
              ]
            }
          },
          "T": {
            "type": "DT_FLOAT"
          }
        }
      },
      {
        "name": "StatefulPartitionedCall/deeplabv3p/average_pooling2d/AvgPool",
        "op": "AvgPool",
        "input": [
          "StatefulPartitionedCall/deeplabv3p/expanded_conv_16_project_BN/FusedBatchNormV3"
        ],
        "attr": {
          "T": {
            "type": "DT_FLOAT"
          },
          "strides": {
            "list": {
              "i": [
                "1",
                "28",
                "28",
                "1"
              ]
            }
          },
          "data_format": {
            "s": "TkhXQw=="
          },
          "ksize": {
            "list": {
              "i": [
                "1",
                "28",
                "28",
                "1"
              ]
            }
          },
          "padding": {
            "s": "VkFMSUQ="
          }
        }
      },
      {
        "name": "StatefulPartitionedCall/deeplabv3p/aspp0_activation/Relu",
        "op": "_FusedConv2D",
        "input": [
          "StatefulPartitionedCall/deeplabv3p/expanded_conv_16_project_BN/FusedBatchNormV3",
          "StatefulPartitionedCall/deeplabv3p/aspp0/Conv2D_weights",
          "StatefulPartitionedCall/deeplabv3p/aspp0/Conv2D_bn_offset"
        ],
        "device": "/device:CPU:0",
        "attr": {
          "num_args": {
            "i": "1"
          },
          "epsilon": {
            "f": 0.0
          },
          "padding": {
            "s": "U0FNRQ=="
          },
          "fused_ops": {
            "list": {
              "s": [
                "Qmlhc0FkZA==",
                "UmVsdQ=="
              ]
            }
          },
          "dilations": {
            "list": {
              "i": [
                "1",
                "1",
                "1",
                "1"
              ]
            }
          },
          "T": {
            "type": "DT_FLOAT"
          },
          "data_format": {
            "s": "TkhXQw=="
          },
          "strides": {
            "list": {
              "i": [
                "1",
                "1",
                "1",
                "1"
              ]
            }
          },
          "explicit_paddings": {
            "list": {}
          },
          "use_cudnn_on_gpu": {
            "b": true
          }
        }
      },
      {
        "name": "StatefulPartitionedCall/deeplabv3p/activation/Relu",
        "op": "_FusedConv2D",
        "input": [
          "StatefulPartitionedCall/deeplabv3p/average_pooling2d/AvgPool",
          "StatefulPartitionedCall/deeplabv3p/image_pooling/Conv2D_weights",
          "StatefulPartitionedCall/deeplabv3p/image_pooling/Conv2D_bn_offset"
        ],
        "device": "/device:CPU:0",
        "attr": {
          "dilations": {
            "list": {
              "i": [
                "1",
                "1",
                "1",
                "1"
              ]
            }
          },
          "T": {
            "type": "DT_FLOAT"
          },
          "strides": {
            "list": {
              "i": [
                "1",
                "1",
                "1",
                "1"
              ]
            }
          },
          "data_format": {
            "s": "TkhXQw=="
          },
          "use_cudnn_on_gpu": {
            "b": true
          },
          "explicit_paddings": {
            "list": {}
          },
          "num_args": {
            "i": "1"
          },
          "epsilon": {
            "f": 0.0
          },
          "padding": {
            "s": "U0FNRQ=="
          },
          "fused_ops": {
            "list": {
              "s": [
                "Qmlhc0FkZA==",
                "UmVsdQ=="
              ]
            }
          }
        }
      },
      {
        "name": "StatefulPartitionedCall/deeplabv3p/lambda_1/resize/ResizeBilinear",
        "op": "ResizeBilinear",
        "input": [
          "StatefulPartitionedCall/deeplabv3p/activation/Relu",
          "StatefulPartitionedCall/deeplabv3p/lambda_1/resize/size"
        ],
        "attr": {
          "T": {
            "type": "DT_FLOAT"
          },
          "align_corners": {
            "b": false
          },
          "half_pixel_centers": {
            "b": true
          }
        }
      },
      {
        "name": "StatefulPartitionedCall/deeplabv3p/concatenate/concat",
        "op": "ConcatV2",
        "input": [
          "StatefulPartitionedCall/deeplabv3p/lambda_1/resize/ResizeBilinear",
          "StatefulPartitionedCall/deeplabv3p/aspp0_activation/Relu",
          "StatefulPartitionedCall/deeplabv3p/concatenate/concat/axis"
        ],
        "attr": {
          "Tidx": {
            "type": "DT_INT32"
          },
          "T": {
            "type": "DT_FLOAT"
          },
          "N": {
            "i": "2"
          }
        }
      },
      {
        "name": "StatefulPartitionedCall/deeplabv3p/activation_1/Relu",
        "op": "_FusedConv2D",
        "input": [
          "StatefulPartitionedCall/deeplabv3p/concatenate/concat",
          "StatefulPartitionedCall/deeplabv3p/concat_projection/Conv2D_weights",
          "StatefulPartitionedCall/deeplabv3p/concat_projection/Conv2D_bn_offset"
        ],
        "device": "/device:CPU:0",
        "attr": {
          "epsilon": {
            "f": 0.0
          },
          "padding": {
            "s": "U0FNRQ=="
          },
          "fused_ops": {
            "list": {
              "s": [
                "Qmlhc0FkZA==",
                "UmVsdQ=="
              ]
            }
          },
          "dilations": {
            "list": {
              "i": [
                "1",
                "1",
                "1",
                "1"
              ]
            }
          },
          "T": {
            "type": "DT_FLOAT"
          },
          "data_format": {
            "s": "TkhXQw=="
          },
          "strides": {
            "list": {
              "i": [
                "1",
                "1",
                "1",
                "1"
              ]
            }
          },
          "use_cudnn_on_gpu": {
            "b": true
          },
          "explicit_paddings": {
            "list": {}
          },
          "num_args": {
            "i": "1"
          }
        }
      },
      {
        "name": "StatefulPartitionedCall/deeplabv3p/batch_normalization/FusedBatchNormV3",
        "op": "_FusedConv2D",
        "input": [
          "StatefulPartitionedCall/deeplabv3p/activation_1/Relu",
          "StatefulPartitionedCall/deeplabv3p/conv2d/Conv2D_weights",
          "StatefulPartitionedCall/deeplabv3p/conv2d/Conv2D_bn_offset"
        ],
        "device": "/device:CPU:0",
        "attr": {
          "data_format": {
            "s": "TkhXQw=="
          },
          "strides": {
            "list": {
              "i": [
                "1",
                "1",
                "1",
                "1"
              ]
            }
          },
          "explicit_paddings": {
            "list": {}
          },
          "use_cudnn_on_gpu": {
            "b": true
          },
          "num_args": {
            "i": "1"
          },
          "epsilon": {
            "f": 0.0
          },
          "padding": {
            "s": "U0FNRQ=="
          },
          "fused_ops": {
            "list": {
              "s": [
                "Qmlhc0FkZA=="
              ]
            }
          },
          "dilations": {
            "list": {
              "i": [
                "1",
                "1",
                "1",
                "1"
              ]
            }
          },
          "T": {
            "type": "DT_FLOAT"
          }
        }
      },
      {
        "name": "StatefulPartitionedCall/deeplabv3p/activation_3/Softmax",
        "op": "Softmax",
        "input": [
          "StatefulPartitionedCall/deeplabv3p/batch_normalization/FusedBatchNormV3"
        ],
        "attr": {
          "T": {
            "type": "DT_FLOAT"
          }
        }
      },
      {
        "name": "StatefulPartitionedCall/deeplabv3p/lambda_3/resize/ResizeBilinear",
        "op": "ResizeBilinear",
        "input": [
          "StatefulPartitionedCall/deeplabv3p/activation_3/Softmax",
          "StatefulPartitionedCall/deeplabv3p/lambda_3/resize/size"
        ],
        "attr": {
          "align_corners": {
            "b": false
          },
          "half_pixel_centers": {
            "b": true
          },
          "T": {
            "type": "DT_FLOAT"
          }
        }
      },
      {
        "name": "Identity",
        "op": "Identity",
        "input": [
          "StatefulPartitionedCall/deeplabv3p/lambda_3/resize/ResizeBilinear"
        ],
        "attr": {
          "T": {
            "type": "DT_FLOAT"
          }
        }
      }
    ],
    "library": {},
    "versions": {
      "producer": 440
    }
  },
  "weightsManifest": [
    {
      "paths": [
        "group1-shard1of3.bin",
        "group1-shard2of3.bin",
        "group1-shard3of3.bin"
      ],
      "weights": [
        {
          "name": "StatefulPartitionedCall/deeplabv3p/lambda_1/resize/size",
          "shape": [
            2
          ],
          "dtype": "int32"
        },
        {
          "name": "StatefulPartitionedCall/deeplabv3p/lambda/mul/y",
          "shape": [],
          "dtype": "float32"
        },
        {
          "name": "StatefulPartitionedCall/deeplabv3p/lambda/sub/y",
          "shape": [],
          "dtype": "float32"
        },
        {
          "name": "StatefulPartitionedCall/deeplabv3p/expanded_conv_7_depthwise/depthwise/SpaceToBatchND/block_shape",
          "shape": [
            2
          ],
          "dtype": "int32"
        },
        {
          "name": "StatefulPartitionedCall/deeplabv3p/expanded_conv_7_depthwise/depthwise/SpaceToBatchND/paddings",
          "shape": [
            2,
            2
          ],
          "dtype": "int32"
        },
        {
          "name": "unknown_109",
          "shape": [
            3,
            3,
            384,
            1
          ],
          "dtype": "float32"
        },
        {
          "name": "StatefulPartitionedCall/deeplabv3p/expanded_conv_7_depthwise/depthwise/BatchToSpaceND/block_shape",
          "shape": [
            2
          ],
          "dtype": "int32"
        },
        {
          "name": "StatefulPartitionedCall/deeplabv3p/expanded_conv_7_depthwise/depthwise/BatchToSpaceND/crops",
          "shape": [
            2,
            2
          ],
          "dtype": "int32"
        },
        {
          "name": "StatefulPartitionedCall/deeplabv3p/expanded_conv_8_depthwise/depthwise/SpaceToBatchND/block_shape",
          "shape": [
            2
          ],
          "dtype": "int32"
        },
        {
          "name": "StatefulPartitionedCall/deeplabv3p/expanded_conv_8_depthwise/depthwise/SpaceToBatchND/paddings",
          "shape": [
            2,
            2
          ],
          "dtype": "int32"
        },
        {
          "name": "unknown_124",
          "shape": [
            3,
            3,
            384,
            1
          ],
          "dtype": "float32"
        },
        {
          "name": "StatefulPartitionedCall/deeplabv3p/expanded_conv_8_depthwise/depthwise/BatchToSpaceND/block_shape",
          "shape": [
            2
          ],
          "dtype": "int32"
        },
        {
          "name": "StatefulPartitionedCall/deeplabv3p/expanded_conv_8_depthwise/depthwise/BatchToSpaceND/crops",
          "shape": [
            2,
            2
          ],
          "dtype": "int32"
        },
        {
          "name": "StatefulPartitionedCall/deeplabv3p/expanded_conv_9_depthwise/depthwise/SpaceToBatchND/block_shape",
          "shape": [
            2
          ],
          "dtype": "int32"
        },
        {
          "name": "StatefulPartitionedCall/deeplabv3p/expanded_conv_9_depthwise/depthwise/SpaceToBatchND/paddings",
          "shape": [
            2,
            2
          ],
          "dtype": "int32"
        },
        {
          "name": "unknown_139",
          "shape": [
            3,
            3,
            384,
            1
          ],
          "dtype": "float32"
        },
        {
          "name": "StatefulPartitionedCall/deeplabv3p/expanded_conv_9_depthwise/depthwise/BatchToSpaceND/block_shape",
          "shape": [
            2
          ],
          "dtype": "int32"
        },
        {
          "name": "StatefulPartitionedCall/deeplabv3p/expanded_conv_9_depthwise/depthwise/BatchToSpaceND/crops",
          "shape": [
            2,
            2
          ],
          "dtype": "int32"
        },
        {
          "name": "StatefulPartitionedCall/deeplabv3p/expanded_conv_10_depthwise/depthwise/SpaceToBatchND/block_shape",
          "shape": [
            2
          ],
          "dtype": "int32"
        },
        {
          "name": "StatefulPartitionedCall/deeplabv3p/expanded_conv_10_depthwise/depthwise/SpaceToBatchND/paddings",
          "shape": [
            2,
            2
          ],
          "dtype": "int32"
        },
        {
          "name": "unknown_154",
          "shape": [
            3,
            3,
            384,
            1
          ],
          "dtype": "float32"
        },
        {
          "name": "StatefulPartitionedCall/deeplabv3p/expanded_conv_10_depthwise/depthwise/BatchToSpaceND/block_shape",
          "shape": [
            2
          ],
          "dtype": "int32"
        },
        {
          "name": "StatefulPartitionedCall/deeplabv3p/expanded_conv_10_depthwise/depthwise/BatchToSpaceND/crops",
          "shape": [
            2,
            2
          ],
          "dtype": "int32"
        },
        {
          "name": "StatefulPartitionedCall/deeplabv3p/expanded_conv_11_depthwise/depthwise/SpaceToBatchND/block_shape",
          "shape": [
            2
          ],
          "dtype": "int32"
        },
        {
          "name": "StatefulPartitionedCall/deeplabv3p/expanded_conv_11_depthwise/depthwise/SpaceToBatchND/paddings",
          "shape": [
            2,
            2
          ],
          "dtype": "int32"
        },
        {
          "name": "unknown_169",
          "shape": [
            3,
            3,
            576,
            1
          ],
          "dtype": "float32"
        },
        {
          "name": "StatefulPartitionedCall/deeplabv3p/expanded_conv_11_depthwise/depthwise/BatchToSpaceND/block_shape",
          "shape": [
            2
          ],
          "dtype": "int32"
        },
        {
          "name": "StatefulPartitionedCall/deeplabv3p/expanded_conv_11_depthwise/depthwise/BatchToSpaceND/crops",
          "shape": [
            2,
            2
          ],
          "dtype": "int32"
        },
        {
          "name": "StatefulPartitionedCall/deeplabv3p/expanded_conv_12_depthwise/depthwise/SpaceToBatchND/block_shape",
          "shape": [
            2
          ],
          "dtype": "int32"
        },
        {
          "name": "StatefulPartitionedCall/deeplabv3p/expanded_conv_12_depthwise/depthwise/SpaceToBatchND/paddings",
          "shape": [
            2,
            2
          ],
          "dtype": "int32"
        },
        {
          "name": "unknown_184",
          "shape": [
            3,
            3,
            576,
            1
          ],
          "dtype": "float32"
        },
        {
          "name": "StatefulPartitionedCall/deeplabv3p/expanded_conv_12_depthwise/depthwise/BatchToSpaceND/block_shape",
          "shape": [
            2
          ],
          "dtype": "int32"
        },
        {
          "name": "StatefulPartitionedCall/deeplabv3p/expanded_conv_12_depthwise/depthwise/BatchToSpaceND/crops",
          "shape": [
            2,
            2
          ],
          "dtype": "int32"
        },
        {
          "name": "StatefulPartitionedCall/deeplabv3p/expanded_conv_13_depthwise/depthwise/SpaceToBatchND/block_shape",
          "shape": [
            2
          ],
          "dtype": "int32"
        },
        {
          "name": "StatefulPartitionedCall/deeplabv3p/expanded_conv_13_depthwise/depthwise/SpaceToBatchND/paddings",
          "shape": [
            2,
            2
          ],
          "dtype": "int32"
        },
        {
          "name": "unknown_199",
          "shape": [
            3,
            3,
            576,
            1
          ],
          "dtype": "float32"
        },
        {
          "name": "StatefulPartitionedCall/deeplabv3p/expanded_conv_13_depthwise/depthwise/BatchToSpaceND/block_shape",
          "shape": [
            2
          ],
          "dtype": "int32"
        },
        {
          "name": "StatefulPartitionedCall/deeplabv3p/expanded_conv_13_depthwise/depthwise/BatchToSpaceND/crops",
          "shape": [
            2,
            2
          ],
          "dtype": "int32"
        },
        {
          "name": "StatefulPartitionedCall/deeplabv3p/expanded_conv_14_depthwise/depthwise/SpaceToBatchND/block_shape",
          "shape": [
            2
          ],
          "dtype": "int32"
        },
        {
          "name": "StatefulPartitionedCall/deeplabv3p/expanded_conv_14_depthwise/depthwise/SpaceToBatchND/paddings",
          "shape": [
            2,
            2
          ],
          "dtype": "int32"
        },
        {
          "name": "unknown_214",
          "shape": [
            3,
            3,
            960,
            1
          ],
          "dtype": "float32"
        },
        {
          "name": "StatefulPartitionedCall/deeplabv3p/expanded_conv_14_depthwise/depthwise/BatchToSpaceND/block_shape",
          "shape": [
            2
          ],
          "dtype": "int32"
        },
        {
          "name": "StatefulPartitionedCall/deeplabv3p/expanded_conv_14_depthwise/depthwise/BatchToSpaceND/crops",
          "shape": [
            2,
            2
          ],
          "dtype": "int32"
        },
        {
          "name": "StatefulPartitionedCall/deeplabv3p/expanded_conv_15_depthwise/depthwise/SpaceToBatchND/block_shape",
          "shape": [
            2
          ],
          "dtype": "int32"
        },
        {
          "name": "StatefulPartitionedCall/deeplabv3p/expanded_conv_15_depthwise/depthwise/SpaceToBatchND/paddings",
          "shape": [
            2,
            2
          ],
          "dtype": "int32"
        },
        {
          "name": "unknown_229",
          "shape": [
            3,
            3,
            960,
            1
          ],
          "dtype": "float32"
        },
        {
          "name": "StatefulPartitionedCall/deeplabv3p/expanded_conv_15_depthwise/depthwise/BatchToSpaceND/block_shape",
          "shape": [
            2
          ],
          "dtype": "int32"
        },
        {
          "name": "StatefulPartitionedCall/deeplabv3p/expanded_conv_15_depthwise/depthwise/BatchToSpaceND/crops",
          "shape": [
            2,
            2
          ],
          "dtype": "int32"
        },
        {
          "name": "StatefulPartitionedCall/deeplabv3p/expanded_conv_16_depthwise/depthwise/SpaceToBatchND/block_shape",
          "shape": [
            2
          ],
          "dtype": "int32"
        },
        {
          "name": "StatefulPartitionedCall/deeplabv3p/expanded_conv_16_depthwise/depthwise/SpaceToBatchND/paddings",
          "shape": [
            2,
            2
          ],
          "dtype": "int32"
        },
        {
          "name": "unknown_244",
          "shape": [
            3,
            3,
            960,
            1
          ],
          "dtype": "float32"
        },
        {
          "name": "StatefulPartitionedCall/deeplabv3p/expanded_conv_16_depthwise/depthwise/BatchToSpaceND/block_shape",
          "shape": [
            2
          ],
          "dtype": "int32"
        },
        {
          "name": "StatefulPartitionedCall/deeplabv3p/expanded_conv_16_depthwise/depthwise/BatchToSpaceND/crops",
          "shape": [
            2,
            2
          ],
          "dtype": "int32"
        },
        {
          "name": "StatefulPartitionedCall/deeplabv3p/concatenate/concat/axis",
          "shape": [],
          "dtype": "int32"
        },
        {
          "name": "StatefulPartitionedCall/deeplabv3p/lambda_3/resize/size",
          "shape": [
            2
          ],
          "dtype": "int32"
        },
        {
          "name": "StatefulPartitionedCall/deeplabv3p/Conv/Conv2D_weights",
          "shape": [
            3,
            3,
            3,
            32
          ],
          "dtype": "float32"
        },
        {
          "name": "StatefulPartitionedCall/deeplabv3p/Conv/Conv2D_bn_offset",
          "shape": [
            32
          ],
          "dtype": "float32"
        },
        {
          "name": "StatefulPartitionedCall/deeplabv3p/expanded_conv_15_depthwise_BN/FusedBatchNormV3/Offset",
          "shape": [
            960
          ],
          "dtype": "float32"
        },
        {
          "name": "StatefulPartitionedCall/deeplabv3p/expanded_conv_depthwise/depthwise_weights",
          "shape": [
            3,
            3,
            32,
            1
          ],
          "dtype": "float32"
        },
        {
          "name": "StatefulPartitionedCall/deeplabv3p/expanded_conv_depthwise/depthwise_bn_offset",
          "shape": [
            32
          ],
          "dtype": "float32"
        },
        {
          "name": "StatefulPartitionedCall/deeplabv3p/expanded_conv_project/Conv2D_weights",
          "shape": [
            1,
            1,
            32,
            16
          ],
          "dtype": "float32"
        },
        {
          "name": "StatefulPartitionedCall/deeplabv3p/expanded_conv_project/Conv2D_bn_offset",
          "shape": [
            16
          ],
          "dtype": "float32"
        },
        {
          "name": "StatefulPartitionedCall/deeplabv3p/expanded_conv_1_expand/Conv2D_weights",
          "shape": [
            1,
            1,
            16,
            96
          ],
          "dtype": "float32"
        },
        {
          "name": "StatefulPartitionedCall/deeplabv3p/expanded_conv_1_expand/Conv2D_bn_offset",
          "shape": [
            96
          ],
          "dtype": "float32"
        },
        {
          "name": "StatefulPartitionedCall/deeplabv3p/expanded_conv_1_depthwise/depthwise_weights",
          "shape": [
            3,
            3,
            96,
            1
          ],
          "dtype": "float32"
        },
        {
          "name": "StatefulPartitionedCall/deeplabv3p/expanded_conv_1_depthwise/depthwise_bn_offset",
          "shape": [
            96
          ],
          "dtype": "float32"
        },
        {
          "name": "StatefulPartitionedCall/deeplabv3p/expanded_conv_1_project/Conv2D_weights",
          "shape": [
            1,
            1,
            96,
            24
          ],
          "dtype": "float32"
        },
        {
          "name": "StatefulPartitionedCall/deeplabv3p/expanded_conv_14_depthwise_BN/FusedBatchNormV3/Scaled",
          "shape": [
            960
          ],
          "dtype": "float32"
        },
        {
          "name": "StatefulPartitionedCall/deeplabv3p/expanded_conv_1_project/Conv2D_bn_offset",
          "shape": [
            24
          ],
          "dtype": "float32"
        },
        {
          "name": "StatefulPartitionedCall/deeplabv3p/expanded_conv_2_expand/Conv2D_weights",
          "shape": [
            1,
            1,
            24,
            144
          ],
          "dtype": "float32"
        },
        {
          "name": "StatefulPartitionedCall/deeplabv3p/expanded_conv_2_expand/Conv2D_bn_offset",
          "shape": [
            144
          ],
          "dtype": "float32"
        },
        {
          "name": "StatefulPartitionedCall/deeplabv3p/expanded_conv_2_depthwise/depthwise_weights",
          "shape": [
            3,
            3,
            144,
            1
          ],
          "dtype": "float32"
        },
        {
          "name": "StatefulPartitionedCall/deeplabv3p/expanded_conv_2_depthwise/depthwise_bn_offset",
          "shape": [
            144
          ],
          "dtype": "float32"
        },
        {
          "name": "StatefulPartitionedCall/deeplabv3p/expanded_conv_2_project/Conv2D_weights",
          "shape": [
            1,
            1,
            144,
            24
          ],
          "dtype": "float32"
        },
        {
          "name": "StatefulPartitionedCall/deeplabv3p/expanded_conv_14_depthwise_BN/FusedBatchNormV3/Offset",
          "shape": [
            960
          ],
          "dtype": "float32"
        },
        {
          "name": "StatefulPartitionedCall/deeplabv3p/expanded_conv_2_project/Conv2D_bn_offset",
          "shape": [
            24
          ],
          "dtype": "float32"
        },
        {
          "name": "StatefulPartitionedCall/deeplabv3p/expanded_conv_3_expand/Conv2D_weights",
          "shape": [
            1,
            1,
            24,
            144
          ],
          "dtype": "float32"
        },
        {
          "name": "StatefulPartitionedCall/deeplabv3p/expanded_conv_3_expand/Conv2D_bn_offset",
          "shape": [
            144
          ],
          "dtype": "float32"
        },
        {
          "name": "StatefulPartitionedCall/deeplabv3p/expanded_conv_3_depthwise/depthwise_weights",
          "shape": [
            3,
            3,
            144,
            1
          ],
          "dtype": "float32"
        },
        {
          "name": "StatefulPartitionedCall/deeplabv3p/expanded_conv_3_depthwise/depthwise_bn_offset",
          "shape": [
            144
          ],
          "dtype": "float32"
        },
        {
          "name": "StatefulPartitionedCall/deeplabv3p/expanded_conv_3_project/Conv2D_weights",
          "shape": [
            1,
            1,
            144,
            32
          ],
          "dtype": "float32"
        },
        {
          "name": "StatefulPartitionedCall/deeplabv3p/expanded_conv_3_project/Conv2D_bn_offset",
          "shape": [
            32
          ],
          "dtype": "float32"
        },
        {
          "name": "StatefulPartitionedCall/deeplabv3p/expanded_conv_4_expand/Conv2D_weights",
          "shape": [
            1,
            1,
            32,
            192
          ],
          "dtype": "float32"
        },
        {
          "name": "StatefulPartitionedCall/deeplabv3p/expanded_conv_13_depthwise_BN/FusedBatchNormV3/Scaled",
          "shape": [
            576
          ],
          "dtype": "float32"
        },
        {
          "name": "StatefulPartitionedCall/deeplabv3p/expanded_conv_4_expand/Conv2D_bn_offset",
          "shape": [
            192
          ],
          "dtype": "float32"
        },
        {
          "name": "StatefulPartitionedCall/deeplabv3p/expanded_conv_4_depthwise/depthwise_weights",
          "shape": [
            3,
            3,
            192,
            1
          ],
          "dtype": "float32"
        },
        {
          "name": "StatefulPartitionedCall/deeplabv3p/expanded_conv_4_depthwise/depthwise_bn_offset",
          "shape": [
            192
          ],
          "dtype": "float32"
        },
        {
          "name": "StatefulPartitionedCall/deeplabv3p/expanded_conv_4_project/Conv2D_weights",
          "shape": [
            1,
            1,
            192,
            32
          ],
          "dtype": "float32"
        },
        {
          "name": "StatefulPartitionedCall/deeplabv3p/expanded_conv_4_project/Conv2D_bn_offset",
          "shape": [
            32
          ],
          "dtype": "float32"
        },
        {
          "name": "StatefulPartitionedCall/deeplabv3p/expanded_conv_5_expand/Conv2D_weights",
          "shape": [
            1,
            1,
            32,
            192
          ],
          "dtype": "float32"
        },
        {
          "name": "StatefulPartitionedCall/deeplabv3p/expanded_conv_13_depthwise_BN/FusedBatchNormV3/Offset",
          "shape": [
            576
          ],
          "dtype": "float32"
        },
        {
          "name": "StatefulPartitionedCall/deeplabv3p/expanded_conv_5_expand/Conv2D_bn_offset",
          "shape": [
            192
          ],
          "dtype": "float32"
        },
        {
          "name": "StatefulPartitionedCall/deeplabv3p/expanded_conv_5_depthwise/depthwise_weights",
          "shape": [
            3,
            3,
            192,
            1
          ],
          "dtype": "float32"
        },
        {
          "name": "StatefulPartitionedCall/deeplabv3p/expanded_conv_5_depthwise/depthwise_bn_offset",
          "shape": [
            192
          ],
          "dtype": "float32"
        },
        {
          "name": "StatefulPartitionedCall/deeplabv3p/expanded_conv_5_project/Conv2D_weights",
          "shape": [
            1,
            1,
            192,
            32
          ],
          "dtype": "float32"
        },
        {
          "name": "StatefulPartitionedCall/deeplabv3p/expanded_conv_5_project/Conv2D_bn_offset",
          "shape": [
            32
          ],
          "dtype": "float32"
        },
        {
          "name": "StatefulPartitionedCall/deeplabv3p/expanded_conv_6_expand/Conv2D_weights",
          "shape": [
            1,
            1,
            32,
            192
          ],
          "dtype": "float32"
        },
        {
          "name": "StatefulPartitionedCall/deeplabv3p/expanded_conv_6_expand/Conv2D_bn_offset",
          "shape": [
            192
          ],
          "dtype": "float32"
        },
        {
          "name": "StatefulPartitionedCall/deeplabv3p/expanded_conv_12_depthwise_BN/FusedBatchNormV3/Scaled",
          "shape": [
            576
          ],
          "dtype": "float32"
        },
        {
          "name": "StatefulPartitionedCall/deeplabv3p/expanded_conv_6_depthwise/depthwise_weights",
          "shape": [
            3,
            3,
            192,
            1
          ],
          "dtype": "float32"
        },
        {
          "name": "StatefulPartitionedCall/deeplabv3p/expanded_conv_6_depthwise/depthwise_bn_offset",
          "shape": [
            192
          ],
          "dtype": "float32"
        },
        {
          "name": "StatefulPartitionedCall/deeplabv3p/expanded_conv_6_project/Conv2D_weights",
          "shape": [
            1,
            1,
            192,
            64
          ],
          "dtype": "float32"
        },
        {
          "name": "StatefulPartitionedCall/deeplabv3p/expanded_conv_6_project/Conv2D_bn_offset",
          "shape": [
            64
          ],
          "dtype": "float32"
        },
        {
          "name": "StatefulPartitionedCall/deeplabv3p/expanded_conv_7_expand/Conv2D_weights",
          "shape": [
            1,
            1,
            64,
            384
          ],
          "dtype": "float32"
        },
        {
          "name": "StatefulPartitionedCall/deeplabv3p/expanded_conv_7_expand/Conv2D_bn_offset",
          "shape": [
            384
          ],
          "dtype": "float32"
        },
        {
          "name": "StatefulPartitionedCall/deeplabv3p/expanded_conv_12_depthwise_BN/FusedBatchNormV3/Offset",
          "shape": [
            576
          ],
          "dtype": "float32"
        },
        {
          "name": "StatefulPartitionedCall/deeplabv3p/expanded_conv_7_project/Conv2D_weights",
          "shape": [
            1,
            1,
            384,
            64
          ],
          "dtype": "float32"
        },
        {
          "name": "StatefulPartitionedCall/deeplabv3p/expanded_conv_7_project/Conv2D_bn_offset",
          "shape": [
            64
          ],
          "dtype": "float32"
        },
        {
          "name": "StatefulPartitionedCall/deeplabv3p/expanded_conv_8_expand/Conv2D_weights",
          "shape": [
            1,
            1,
            64,
            384
          ],
          "dtype": "float32"
        },
        {
          "name": "StatefulPartitionedCall/deeplabv3p/expanded_conv_8_expand/Conv2D_bn_offset",
          "shape": [
            384
          ],
          "dtype": "float32"
        },
        {
          "name": "StatefulPartitionedCall/deeplabv3p/expanded_conv_8_project/Conv2D_weights",
          "shape": [
            1,
            1,
            384,
            64
          ],
          "dtype": "float32"
        },
        {
          "name": "StatefulPartitionedCall/deeplabv3p/expanded_conv_11_depthwise_BN/FusedBatchNormV3/Scaled",
          "shape": [
            576
          ],
          "dtype": "float32"
        },
        {
          "name": "StatefulPartitionedCall/deeplabv3p/expanded_conv_8_project/Conv2D_bn_offset",
          "shape": [
            64
          ],
          "dtype": "float32"
        },
        {
          "name": "StatefulPartitionedCall/deeplabv3p/expanded_conv_9_expand/Conv2D_weights",
          "shape": [
            1,
            1,
            64,
            384
          ],
          "dtype": "float32"
        },
        {
          "name": "StatefulPartitionedCall/deeplabv3p/expanded_conv_9_expand/Conv2D_bn_offset",
          "shape": [
            384
          ],
          "dtype": "float32"
        },
        {
          "name": "StatefulPartitionedCall/deeplabv3p/expanded_conv_9_project/Conv2D_weights",
          "shape": [
            1,
            1,
            384,
            64
          ],
          "dtype": "float32"
        },
        {
          "name": "StatefulPartitionedCall/deeplabv3p/expanded_conv_11_depthwise_BN/FusedBatchNormV3/Offset",
          "shape": [
            576
          ],
          "dtype": "float32"
        },
        {
          "name": "StatefulPartitionedCall/deeplabv3p/expanded_conv_9_project/Conv2D_bn_offset",
          "shape": [
            64
          ],
          "dtype": "float32"
        },
        {
          "name": "StatefulPartitionedCall/deeplabv3p/expanded_conv_10_expand/Conv2D_weights",
          "shape": [
            1,
            1,
            64,
            384
          ],
          "dtype": "float32"
        },
        {
          "name": "StatefulPartitionedCall/deeplabv3p/expanded_conv_10_expand/Conv2D_bn_offset",
          "shape": [
            384
          ],
          "dtype": "float32"
        },
        {
          "name": "StatefulPartitionedCall/deeplabv3p/expanded_conv_10_project/Conv2D_weights",
          "shape": [
            1,
            1,
            384,
            96
          ],
          "dtype": "float32"
        },
        {
          "name": "StatefulPartitionedCall/deeplabv3p/expanded_conv_10_project/Conv2D_bn_offset",
          "shape": [
            96
          ],
          "dtype": "float32"
        },
        {
          "name": "StatefulPartitionedCall/deeplabv3p/expanded_conv_11_expand/Conv2D_weights",
          "shape": [
            1,
            1,
            96,
            576
          ],
          "dtype": "float32"
        },
        {
          "name": "StatefulPartitionedCall/deeplabv3p/expanded_conv_10_depthwise_BN/FusedBatchNormV3/Scaled",
          "shape": [
            384
          ],
          "dtype": "float32"
        },
        {
          "name": "StatefulPartitionedCall/deeplabv3p/expanded_conv_11_expand/Conv2D_bn_offset",
          "shape": [
            576
          ],
          "dtype": "float32"
        },
        {
          "name": "StatefulPartitionedCall/deeplabv3p/expanded_conv_11_project/Conv2D_weights",
          "shape": [
            1,
            1,
            576,
            96
          ],
          "dtype": "float32"
        },
        {
          "name": "StatefulPartitionedCall/deeplabv3p/expanded_conv_11_project/Conv2D_bn_offset",
          "shape": [
            96
          ],
          "dtype": "float32"
        },
        {
          "name": "StatefulPartitionedCall/deeplabv3p/expanded_conv_12_expand/Conv2D_weights",
          "shape": [
            1,
            1,
            96,
            576
          ],
          "dtype": "float32"
        },
        {
          "name": "StatefulPartitionedCall/deeplabv3p/expanded_conv_10_depthwise_BN/FusedBatchNormV3/Offset",
          "shape": [
            384
          ],
          "dtype": "float32"
        },
        {
          "name": "StatefulPartitionedCall/deeplabv3p/expanded_conv_12_expand/Conv2D_bn_offset",
          "shape": [
            576
          ],
          "dtype": "float32"
        },
        {
          "name": "StatefulPartitionedCall/deeplabv3p/expanded_conv_12_project/Conv2D_weights",
          "shape": [
            1,
            1,
            576,
            96
          ],
          "dtype": "float32"
        },
        {
          "name": "StatefulPartitionedCall/deeplabv3p/expanded_conv_12_project/Conv2D_bn_offset",
          "shape": [
            96
          ],
          "dtype": "float32"
        },
        {
          "name": "StatefulPartitionedCall/deeplabv3p/expanded_conv_13_expand/Conv2D_weights",
          "shape": [
            1,
            1,
            96,
            576
          ],
          "dtype": "float32"
        },
        {
          "name": "StatefulPartitionedCall/deeplabv3p/expanded_conv_13_expand/Conv2D_bn_offset",
          "shape": [
            576
          ],
          "dtype": "float32"
        },
        {
          "name": "StatefulPartitionedCall/deeplabv3p/expanded_conv_9_depthwise_BN/FusedBatchNormV3/Scaled",
          "shape": [
            384
          ],
          "dtype": "float32"
        },
        {
          "name": "StatefulPartitionedCall/deeplabv3p/expanded_conv_13_project/Conv2D_weights",
          "shape": [
            1,
            1,
            576,
            160
          ],
          "dtype": "float32"
        },
        {
          "name": "StatefulPartitionedCall/deeplabv3p/expanded_conv_13_project/Conv2D_bn_offset",
          "shape": [
            160
          ],
          "dtype": "float32"
        },
        {
          "name": "StatefulPartitionedCall/deeplabv3p/expanded_conv_14_expand/Conv2D_weights",
          "shape": [
            1,
            1,
            160,
            960
          ],
          "dtype": "float32"
        },
        {
          "name": "StatefulPartitionedCall/deeplabv3p/expanded_conv_14_expand/Conv2D_bn_offset",
          "shape": [
            960
          ],
          "dtype": "float32"
        },
        {
          "name": "StatefulPartitionedCall/deeplabv3p/expanded_conv_9_depthwise_BN/FusedBatchNormV3/Offset",
          "shape": [
            384
          ],
          "dtype": "float32"
        },
        {
          "name": "StatefulPartitionedCall/deeplabv3p/expanded_conv_14_project/Conv2D_weights",
          "shape": [
            1,
            1,
            960,
            160
          ],
          "dtype": "float32"
        },
        {
          "name": "StatefulPartitionedCall/deeplabv3p/expanded_conv_14_project/Conv2D_bn_offset",
          "shape": [
            160
          ],
          "dtype": "float32"
        },
        {
          "name": "StatefulPartitionedCall/deeplabv3p/expanded_conv_15_expand/Conv2D_weights",
          "shape": [
            1,
            1,
            160,
            960
          ],
          "dtype": "float32"
        },
        {
          "name": "StatefulPartitionedCall/deeplabv3p/expanded_conv_15_expand/Conv2D_bn_offset",
          "shape": [
            960
          ],
          "dtype": "float32"
        },
        {
          "name": "StatefulPartitionedCall/deeplabv3p/expanded_conv_15_project/Conv2D_weights",
          "shape": [
            1,
            1,
            960,
            160
          ],
          "dtype": "float32"
        },
        {
          "name": "StatefulPartitionedCall/deeplabv3p/expanded_conv_8_depthwise_BN/FusedBatchNormV3/Scaled",
          "shape": [
            384
          ],
          "dtype": "float32"
        },
        {
          "name": "StatefulPartitionedCall/deeplabv3p/expanded_conv_15_project/Conv2D_bn_offset",
          "shape": [
            160
          ],
          "dtype": "float32"
        },
        {
          "name": "StatefulPartitionedCall/deeplabv3p/expanded_conv_16_expand/Conv2D_weights",
          "shape": [
            1,
            1,
            160,
            960
          ],
          "dtype": "float32"
        },
        {
          "name": "StatefulPartitionedCall/deeplabv3p/expanded_conv_16_expand/Conv2D_bn_offset",
          "shape": [
            960
          ],
          "dtype": "float32"
        },
        {
          "name": "StatefulPartitionedCall/deeplabv3p/expanded_conv_16_project/Conv2D_weights",
          "shape": [
            1,
            1,
            960,
            320
          ],
          "dtype": "float32"
        },
        {
          "name": "StatefulPartitionedCall/deeplabv3p/expanded_conv_8_depthwise_BN/FusedBatchNormV3/Offset",
          "shape": [
            384
          ],
          "dtype": "float32"
        },
        {
          "name": "StatefulPartitionedCall/deeplabv3p/expanded_conv_16_project/Conv2D_bn_offset",
          "shape": [
            320
          ],
          "dtype": "float32"
        },
        {
          "name": "StatefulPartitionedCall/deeplabv3p/aspp0/Conv2D_weights",
          "shape": [
            1,
            1,
            320,
            256
          ],
          "dtype": "float32"
        },
        {
          "name": "StatefulPartitionedCall/deeplabv3p/aspp0/Conv2D_bn_offset",
          "shape": [
            256
          ],
          "dtype": "float32"
        },
        {
          "name": "StatefulPartitionedCall/deeplabv3p/image_pooling/Conv2D_weights",
          "shape": [
            1,
            1,
            320,
            256
          ],
          "dtype": "float32"
        },
        {
          "name": "StatefulPartitionedCall/deeplabv3p/image_pooling/Conv2D_bn_offset",
          "shape": [
            256
          ],
          "dtype": "float32"
        },
        {
          "name": "StatefulPartitionedCall/deeplabv3p/expanded_conv_7_depthwise_BN/FusedBatchNormV3/Scaled",
          "shape": [
            384
          ],
          "dtype": "float32"
        },
        {
          "name": "StatefulPartitionedCall/deeplabv3p/concat_projection/Conv2D_weights",
          "shape": [
            1,
            1,
            512,
            256
          ],
          "dtype": "float32"
        },
        {
          "name": "StatefulPartitionedCall/deeplabv3p/concat_projection/Conv2D_bn_offset",
          "shape": [
            256
          ],
          "dtype": "float32"
        },
        {
          "name": "StatefulPartitionedCall/deeplabv3p/conv2d/Conv2D_weights",
          "shape": [
            1,
            1,
            256,
            2
          ],
          "dtype": "float32"
        },
        {
          "name": "StatefulPartitionedCall/deeplabv3p/expanded_conv_7_depthwise_BN/FusedBatchNormV3/Offset",
          "shape": [
            384
          ],
          "dtype": "float32"
        },
        {
          "name": "StatefulPartitionedCall/deeplabv3p/conv2d/Conv2D_bn_offset",
          "shape": [
            2
          ],
          "dtype": "float32"
        },
        {
          "name": "StatefulPartitionedCall/deeplabv3p/expanded_conv_16_depthwise_BN/FusedBatchNormV3/Scaled",
          "shape": [
            960
          ],
          "dtype": "float32"
        },
        {
          "name": "StatefulPartitionedCall/deeplabv3p/expanded_conv_16_depthwise_BN/FusedBatchNormV3/Offset",
          "shape": [
            960
          ],
          "dtype": "float32"
        },
        {
          "name": "StatefulPartitionedCall/deeplabv3p/expanded_conv_15_depthwise_BN/FusedBatchNormV3/Scaled",
          "shape": [
            960
          ],
          "dtype": "float32"
        }
      ]
    }
  ]
}
